app/src/main/assets/gesture_model.tflite (tflite, 211752 bytes, 10 tensors)

sequential_1/dense_1_2/MatMul f4 [6, 64]
000000 24 6e ee 3c e1 9c aa 3e b1 ad 45 be db d0 9b 3a
       0.029105254 0.33322814 -0.1930454 0.0011887805
000010 10 5d fd bd 37 da 88 3d d7 fd 76 be 63 21 ed be
       -0.12371266 0.06682246 -0.2412027 -0.46314535
000020 96 5e b1 bd 28 dd be 3d 5d 36 25 3e 0e f4 b5 3d
       -0.08660619 0.09319526 0.16134019 0.0888444
000030 4d 0f b5 be 90 9d 09 bf 1f fe 09 be 84 3c 7c be
       -0.35363236 -0.53756046 -0.13475846 -0.2463246
000040 56 13 5c 3e f2 ba c4 be e0 85 34 bf 1e ce ec be
       0.21491751 -0.38423878 -0.7051678 -0.46251005
000050 7e 0f 56 be 89 a6 16 3e 9b 5c 77 be 85 1c 31 3d
       -0.20904347 0.14711966 -0.2415642 0.04324009
000060 87 d2 89 3d c5 53 17 3e ce 0c f2 bd 8a 78 87 3e
       0.06729608 0.1477805 -0.118188486 0.26459152
000070 ad b5 a7 bd 6f bb 82 3d b1 6a 28 3d 0e e9 a7 3e
       -0.08188949 0.06383406 0.041117374 0.32794994
000080 39 54 02 bf 41 09 24 3e 7e 8d 3c 3e 5b 86 fe 3e
       -0.50909764 0.16019155 0.1841335 0.4971188
000090 af ad 27 3e aa f2 e1 3c 9d ef 12 bf df 1b 35 be
       0.16374849 0.027581532 -0.5739687 -0.17686413
0000a0 63 66 6a be 81 74 84 3e f7 aa c8 bd 31 3a 4d be
       -0.2289062 0.25870135 -0.09798234 -0.2004173
0000b0 ac 91 ab be 9f 8e b6 3e 4d ad b5 be 30 36 e8 3d
       -0.33509576 0.35655686 -0.3548378 0.113384604
0000c0 64 61 8d be a7 07 da bc 99 ec ae 3e 0d 9d 9c 3e
       -0.27613366 -0.026614977 0.34164885 0.3058857
0000d0 e4 63 51 3e 12 82 fe 3d 7d 6c da bd 41 3c 85 be
       0.20448261 0.12427153 -0.10665224 -0.26022533
0000e0 89 d7 24 3d cd f6 b3 3e 12 f7 8f 3d 7c 52 b8 be
       0.040244613 0.35149232 0.07029547 -0.3600043
0000f0 e9 53 0c bf 57 7f 83 3e c8 f1 8b 3e 4e 57 bb bd
       -0.54815537 0.2568309 0.27332902 -0.091475114
000100 49 56 e6 3e eb d0 82 3e 5c 40 0f bf 59 53 6d 3e
       0.44987705 0.25550017 -0.5595758 0.23176326
000110 b2 8d eb be 19 53 c2 be af a5 86 3d 5c c4 2b be
       -0.46006542 -0.37954023 0.065745704 -0.16774124
000120 ff 81 07 bf e2 93 f1 be 32 43 54 3d e0 a5 8b be
       -0.52932733 -0.47183138 0.051821895 -0.2727499
000130 24 ca d4 be d0 d5 e0 be 31 ce aa 3e ef 84 94 3e
       -0.4156047 -0.43913126 0.33360437 0.2900767
000140 31 f1 99 3c db 62 76 3d 4d 4f 49 be 1d 20 a1 be
       0.018791767 0.06015287 -0.19659157 -0.31469813
000150 f2 fc 0d be 82 3f f7 bd 85 fc 32 be 18 e8 8c 3d
       -0.13866022 -0.1207266 -0.17479141 0.06880206
000160 ee e5 3f bd 81 de ae be a0 2c 0e bf 1c 34 71 bb
       -0.046850137 -0.34154132 -0.5553684 -0.0036804741
000170 0f b5 0d 3c ce 1e 6b be ca 7a 26 be 6b 30 95 be
       0.008649125 -0.2296097 -0.16257778 -0.29138502
000180 6f d2 25 3e d7 bd ed 3e 01 e8 75 3e f6 87 a9 bd
       0.16193555 0.464339 0.24014284 -0.082778856
000190 58 9d d4 be c3 f1 17 bf d1 8f 86 be 42 bb c8 be
       -0.41526294 -0.59353274 -0.26281598 -0.39205366
0001a0 fd 0e 83 3e 21 2b 4c be 12 8f c3 bd 89 55 a5 3e
       0.25597373 -0.19938327 -0.09548773 0.3229182
0001b0 46 d8 a4 3e 43 98 9a 3d cc 67 c9 3e 29 10 d2 be
       0.32196254 0.07548573 0.39337003 -0.41027954
0001c0 a7 80 2c 3e b3 9a b2 3e 9f 62 45 3e 50 cd 46 3e
       0.16845952 0.3488365 0.19275902 0.19414258
0001d0 09 ef 24 be 2f 42 84 3e 20 96 3a be 6c 64 b4 3d
       -0.1610681 0.25831744 -0.1822133 0.088082165
0001e0 42 09 63 be e6 c0 48 3e bb 5d a8 3e 2f 8e d8 be
       -0.221715 0.19604835 0.3288401 -0.42295977
0001f0 2b 1a c5 be e5 72 b4 be 9d 10 24 3d 96 d3 ad 3d
       -0.38496527 -0.35243908 0.040054906 0.084876224
000200 4c 75 53 3e d0 9b 28 be 1a 3c ee 3c aa b3 db 3e
       0.20650214 -0.16465688 0.029081393 0.4291051
000210 80 2a 62 bd 4e bc 15 bd c5 3c d3 3e d3 a0 a9 bd
       -0.055216312 -0.036556534 0.412573 -0.08282628
000220 57 59 94 be c7 a3 31 3e 68 df 9b 3c 67 bb a9 3d
       -0.2897441 0.17347632 0.019027427 0.08287697
000230 8f b3 8e 3e 09 ec 58 3e 58 89 ee be 61 e0 11 be
       0.27871367 0.2118379 -0.4658916 -0.1424575
000240 4c cb 3b 3e 50 fb 30 bd 5d 8a 19 be de fe 85 3e
       0.1833927 -0.04320842 -0.14994188 0.2617101
000250 84 df c2 3e 98 2d 94 3e c7 79 59 be 22 fe 0b bd
       0.38061154 0.28941035 -0.2123786 -0.034177907
000260 95 25 dc be d6 af 7e bd 07 35 bf 3e aa 9b bf be
       -0.42997423 -0.06217941 0.37345144 -0.3742345
000270 b9 c7 e7 3d 81 1e fe be 5e 9f 95 3e 25 12 15 3e
       0.11317391 -0.49632648 0.2922315 0.14557703
000280 13 49 45 bd b7 a7 39 be 10 57 08 be 26 41 d7 be
       -0.048165392 -0.18130384 -0.13314462 -0.42041892
000290 91 45 f4 be d6 ca 00 3e 06 66 25 bd 6c 35 86 bd
       -0.47709325 0.12577376 -0.0403805 -0.06553158
0002a0 24 fc 23 3e 6b 6b 46 be 43 bf db be 5b 9b d0 bd
       0.16014153 -0.19376914 -0.4291936 -0.10185882
0002b0 22 a4 1b 3e 75 34 bc be 69 82 e6 3d 2e db 27 3e
       0.1519933 -0.36758772 0.112553425 0.16392204
0002c0 71 3b 80 3e c8 db 61 3d f0 72 95 3e 13 dc 5d 3e
       0.2504535 0.05514124 0.29189253 0.21665983
0002d0 42 54 55 3e 06 a0 03 be 44 13 2f 3e 23 48 37 bf
       0.20832923 -0.12854013 0.17097193 -0.71594447
0002e0 7b 4b af be bd 8a 05 be c3 b4 6c 3e 9f d9 31 be
       -0.34237275 -0.13041206 0.2311583 -0.17368172
0002f0 d9 06 fa 3d 02 c9 d3 be 98 ec 0b 3d 65 31 7b bb
       0.12208337 -0.41364294 0.03416118 -0.0038329002
000300 e2 ff 09 be 95 98 90 3e 34 46 77 3e 99 6c 15 be
       -0.13476518 0.2824141 0.24147874 -0.14592208
000310 83 5d 8b 3e 5c 88 55 3e f4 a6 92 bd c7 6e 91 3d
       0.2721978 0.20852798 -0.0716075 0.07101207
000320 14 94 94 3e 13 ed f1 be 69 79 4f be 21 34 21 bd
       0.29019225 -0.47251186 -0.20261158 -0.039356355
000330 b7 5c 7c 39 48 80 2e 3e 34 3e c1 be 36 93 e8 3e
       0.00024067132 0.17041123 -0.3774277 0.45424813
000340 87 db 1d bf 9f ae dd be 1b 70 fe 3d cf 92 b0 bc
       -0.616631 -0.43297288 0.12423726 -0.021554379
000350 c1 a0 00 bf f0 89 a5 be 25 37 83 3d 96 72 bc bd
       -0.5024529 -0.323318 0.06407002 -0.09201543
000360 35 0b 4d be 71 1f b6 be 8a 00 a8 bd d6 31 4b be
       -0.20023806 -0.35570863 -0.08203228 -0.1984323
000370 27 4a ce be 26 5d 33 3e 67 db 36 3d c6 82 39 be
       -0.4029095 0.17516002 0.044642832 -0.18116292
000380 9c 35 90 3e 07 bd af bd 73 2d 0a bf ce a0 a7 bd
       0.281659 -0.08580976 -0.539756 -0.08184968
000390 9c 54 cb bd ad 51 98 3c 24 93 3f 3e 4b 0c e7 3e
       -0.09928247 0.018593634 0.18708473 0.45126566
0003a0 18 97 48 bd 2e a6 a4 bd c6 b8 4c 3e a1 40 a7 bd
       -0.04897222 -0.08039509 0.1999236 -0.08166624
0003b0 d3 5a a4 3e 2c 32 48 3e 34 c6 ad 3d d7 da 1e be
       0.32100543 0.19550389 0.0848507 -0.15513168
0003c0 08 53 b9 be 8f 31 07 bf 86 5e 10 bf 6f cc 77 be
       -0.3619616 -0.52809995 -0.5639423 -0.24199079
0003d0 84 c5 73 3c 51 ad e8 3e 78 30 ce 3e 12 ab c4 bd
       0.014878634 0.4544473 0.40271354 -0.096029416
0003e0 27 02 44 be eb bf 20 3d b1 c2 cc 3d a9 7b dd be
       -0.19141446 0.039245527 0.09998072 -0.43258408
0003f0 d3 42 7a 3e 7c 5a 08 3e aa 72 0e bf a1 4d 9c 3e
       0.24439554 0.13315767 -0.55643713 0.30527976

sequential_1/dense_1/BiasAdd/ReadVariableOp f4 [64]
000000 b6 6d 18 3e 1a 46 50 3e 53 6b e4 3d 67 54 62 3e
       0.14885601 0.20339242 0.11153283 0.2210251
000010 67 83 df 3d 06 02 31 3c 5d d3 32 3e 19 93 63 3d
       0.10913735 0.010803705 0.17463441 0.055560205
000020 a5 93 3c 3d 38 9c 4a 3d 0b 6b 13 3e 6e 6d 30 3d
       0.046039242 0.049465388 0.14396302 0.04307311
000030 06 39 26 3d cb d7 69 3e f5 67 db 3c 2a c4 1f 3e
       0.040581726 0.22836225 0.026782969 0.15602174
000040 fc 80 a5 3d 70 5c 86 3d d4 89 e8 3c 83 eb 9a 3d
       0.080812424 0.065606 0.028386034 0.075644515
000050 f5 33 cb 3d bb 3d 06 3e 7e 26 98 bd 16 cb bb bd
       0.099220194 0.13109486 -0.07429217 -0.09169595
000060 6a 0f ef 3d c3 40 32 3d c5 44 d9 3d 74 d7 8e 3d
       0.11672862 0.043518793 0.1060882 0.06974688
000070 38 11 00 3e fe d1 30 3e 05 5e bd 3d b7 74 d0 3d
       0.12506568 0.17267606 0.092464484 0.101785116
000080 a1 61 b5 3d 97 2a 1a bc ab 08 08 3e ea 21 40 3d
       0.08856512 -0.009409568 0.13284557 0.046907343
000090 aa 1b 32 3e e7 5f 5e 3e 5e e1 4a 3c 50 dc a3 3d
       0.17393366 0.21716271 0.012382833 0.08001006
0000a0 c6 09 68 3e 5d d2 22 be 96 5d 33 bd dd 8b a3 bd
       0.22659978 -0.1590056 -0.043790422 -0.07985661
0000b0 ee 8e 2f 3e 62 ea 43 3e 80 6e fa 3d 5f 62 11 3e
       0.17144367 0.19132379 0.122281075 0.14197682
0000c0 bb 30 91 3d d7 b6 99 3d 1b a4 bc 3e 34 6e 1f 3e
       0.07089373 0.07505577 0.36843953 0.15569383
0000d0 34 a0 6a 3c 06 d1 b5 3d a3 0c ad 3d 5a 88 44 3e
       0.014320422 0.08877759 0.08449676 0.19192639
0000e0 5f 32 c7 3d e6 37 41 be 80 db ad 3e 85 f8 96 3d
       0.097264044 -0.1886898 0.33956528 0.0737162
0000f0 c7 e5 02 3e eb 0f 1b 3e 90 0e 3f 3e e2 9b ff 3c
       0.12782966 0.15142791 0.18657899 0.03120226

sequential_1/dense_1_2/BiasAdd/ReadVariableOp f4 [6]
000000 93 50 b9 3c f2 04 90 bb 1a 70 94 3d d6 aa 16 bd
       0.022621429 -0.004395121 0.07247944 -0.036784016
000010 c6 d6 17 3d 6f b3 3b be
       0.03707006 -0.18330167

sequential_1/dense_1/MatMul i1 [64, 64] scale=0.0050205244 zero_point=0
000000 41 f1 48 1b 2e f2 0d f0 22 15 0b 0f 0d 17 a3 ce
       0.3263341 -0.07530787 0.36147776 0.13555416 0.23094413 -0.07028734 0.06526682 -0.08032839 0.17069782 0.10543101 0.055225767 0.07530787 0.06526682 0.11547206 -0.46690875 -0.2510262
000010 dc 22 ea 16 0c f3 09 ce d0 ff 0d fe 10 25 f6 ed
       -0.18073888 0.17069782 -0.110451534 0.110451534 0.060246293 -0.06526682 0.04518472 -0.2510262 -0.24098517 -0.0050205244 0.06526682 -0.010041049 0.08032839 0.1857594 -0.050205246 -0.09538996
000020 c9 c3 0d f6 02 00 63 23 f6 fe dc 37 ba db ec e6
       -0.27612883 -0.30625197 0.06526682 -0.050205246 0.010041049 0.0 0.49703193 0.17571835 -0.050205246 -0.010041049 -0.18073888 0.27612883 -0.3514367 -0.1857594 -0.10041049 -0.13053364
000030 3c 1a d7 12 cb f4 de 2e f7 ab 18 dc 1f e3 d1 23
       0.30123147 0.13053364 -0.2058415 0.09036944 -0.2660878 -0.060246293 -0.17069782 0.23094413 -0.04518472 -0.42674458 0.120492585 -0.18073888 0.15563625 -0.14559521 -0.23596464 0.17571835
000040 da d5 ef f0 72 c6 fe e4 eb 44 00 02 cf ee e5 ff
       -0.19077992 -0.21588255 -0.08534891 -0.08032839 0.5723398 -0.29119042 -0.010041049 -0.14057468 -0.10543101 0.34139565 0.0 0.010041049 -0.2460057 -0.09036944 -0.13555416 -0.0050205244
000050 f3 40 e2 c5 2a ec 08 23 c7 0d 3c b1 f4 fd f2 f3
       -0.06526682 0.32131356 -0.15061574 -0.29621094 0.21086203 -0.10041049 0.040164195 0.17571835 -0.2861699 0.06526682 0.30123147 -0.39662144 -0.060246293 -0.015061573 -0.07028734 -0.06526682
000060 e0 14 c3 d3 17 a7 3b f2 37 e7 e8 c0 24 4f 04 01
       -0.16065678 0.10041049 -0.30625197 -0.2259236 0.11547206 -0.44682667 0.29621094 -0.07028734 0.27612883 -0.1255131 -0.120492585 -0.32131356 0.18073888 0.39662144 0.020082098 0.0050205244
000070 fe 23 f4 d5 fa bf 08 42 49 d0 f0 e3 35 0d 18 ea
       -0.010041049 0.17571835 -0.060246293 -0.21588255 -0.030123146 -0.3263341 0.040164195 0.33135462 0.3664983 -0.24098517 -0.08032839 -0.14559521 0.2660878 0.06526682 0.120492585 -0.110451534
000080 15 0c d8 20 0f f1 3f fa cd c8 e3 ee 20 d9 37 ec
       0.10543101 0.060246293 -0.20082098 0.16065678 0.07530787 -0.07530787 0.31629303 -0.030123146 -0.25604674 -0.28114936 -0.14559521 -0.09036944 0.16065678 -0.19580045 0.27612883 -0.10041049
000090 52 b9 f3 43 f8 35 f1 14 21 02 d2 3a d0 0c f4 fa
       0.411683 -0.35645723 -0.06526682 0.33637515 -0.040164195 0.2660878 -0.07530787 0.10041049 0.16567731 0.010041049 -0.23094413 0.29119042 -0.24098517 0.060246293 -0.060246293 -0.030123146
0000a0 36 38 ef 1b cb f5 d9 c3 aa 2e bc fc 2f ec 1c cf
       0.27110833 0.28114936 -0.08534891 0.13555416 -0.2660878 -0.055225767 -0.19580045 -0.30625197 -0.4317651 0.23094413 -0.34139565 -0.020082098 0.23596464 -0.10041049 0.14057468 -0.2460057
0000b0 da 1d 2c 05 12 52 10 22 ca e3 d6 2c 3a bf 13 d4
       -0.19077992 0.14559521 0.22090307 0.025102623 0.09036944 0.411683 0.08032839 0.17069782 -0.27110833 -0.14559521 -0.21086203 0.22090307 0.29119042 -0.3263341 0.09538996 -0.22090307
0000c0 45 dc 0f f7 a6 12 f9 3d dc e6 24 d2 f8 01 fe 0e
       0.34641618 -0.18073888 0.07530787 -0.04518472 -0.4518472 0.09036944 -0.03514367 0.30625197 -0.18073888 -0.13053364 0.18073888 -0.23094413 -0.040164195 0.0050205244 -0.010041049 0.07028734
0000d0 ff da f4 2c 06 eb eb b8 27 e3 15 13 d3 2b e1 25
       -0.0050205244 -0.19077992 -0.060246293 0.22090307 0.030123146 -0.10543101 -0.10543101 -0.36147776 0.19580045 -0.14559521 0.10543101 0.09538996 -0.2259236 0.21588255 -0.15563625 0.1857594
0000e0 f7 ae 03 e0 08 17 1f ea d9 dd ee 35 a3 d4 34 f8
       -0.04518472 -0.411683 0.015061573 -0.16065678 0.040164195 0.11547206 0.15563625 -0.110451534 -0.19580045 -0.17571835 -0.09036944 0.2660878 -0.46690875 -0.22090307 0.26106727 -0.040164195
0000f0 f9 06 ea 0c 22 fb cb d5 d9 dd dd 0c 19 8e f0 0c
       -0.03514367 0.030123146 -0.110451534 0.060246293 0.17069782 -0.025102623 -0.2660878 -0.21588255 -0.19580045 -0.17571835 -0.17571835 0.060246293 0.1255131 -0.5723398 -0.08032839 0.060246293

sequential_1/lstm_1/while/lstm_cell_1/add_1/ReadVariableOp f4 [512]
000000 c2 d7 7a bd 70 2f 31 bd 8f 7e a0 bc f9 6a 11 3e
       -0.06124092 -0.04325813 -0.019591598 0.14200963
000010 38 03 22 bc 84 8c 0c 3e 5c 5a 05 3d 11 d2 ac 3c
       -0.009888463 0.13725477 0.032556877 0.021096261
000020 1f aa 96 bd c0 cd 08 bd e1 53 0c bc 85 fb 11 bd
       -0.07356667 -0.033399343 -0.00856492 -0.03564026
000030 27 8e 8f bd 47 02 a4 3c 2d b6 b5 bd e7 9d 74 bd
       -0.07009535 0.020020617 -0.08872638 -0.0597209
000040 c8 6a 5e bd 63 3b 4a 3d 26 5d a6 bc d0 5b 98 bd
       -0.054301053 0.04937304 -0.020308089 -0.07439387
000050 45 88 4d 3d 33 b2 b7 bd ee fd 88 bd b1 44 4b bd
       0.050178785 -0.08969536 -0.06689058 -0.049626056
000060 01 58 1c 3d 89 5c 6d bd 56 72 1a 3d 11 ed 49 3c
       0.038169865 -0.057949577 0.037706695 0.012324587
000070 e5 66 1a bd 61 f6 41 bd 07 d7 35 bd be 0a 96 bd
       -0.037695784 -0.047354106 -0.04439452 -0.07326268
000080 f0 86 d0 3d 4c d9 83 bd 2e 8c 39 3c 12 ed 75 3c
       0.10181987 -0.064379305 0.011324925 0.015010135
000090 c0 12 48 3d fa ba 22 3b 74 d9 3b bd d3 a4 ef b9
       0.048846006 0.0024830685 -0.045861676 -0.00045708436
0000a0 65 2f b3 bd 1f 42 7a bc 77 33 79 3d a2 21 86 bc
       -0.08749274 -0.015274554 0.060840096 -0.01637346
0000b0 08 12 35 bd eb 52 c4 bd 96 3e 79 bd a2 ca f5 3c
       -0.04420665 -0.09586128 -0.060850702 0.03000385
0000c0 75 a3 8e bc eb 74 be bd f3 51 01 be 37 21 09 3d
       -0.017411927 -0.09299644 -0.12628917 0.03347894
0000d0 66 b4 29 bb f2 35 85 3d 38 3a 14 3a 86 d8 69 3a
       -0.002589488 0.0650443 0.0005654427 0.0008920509
0000e0 7e da a3 bc 9b 47 0f 3c 80 33 36 bd ae e5 e2 3d
       -0.020001646 0.008745099 -0.044482708 0.11078964
0000f0 72 82 45 be 3b ef c8 bd cc e4 51 bd 75 5b 71 3d
       -0.19288042 -0.098112546 -0.05124359 0.05892511
000100 3e 9c 3f bc 37 08 3d bd 46 2b 9e bd 92 6f 29 bd
       -0.011694966 -0.046150412 -0.077230975 -0.041366167
000110 fe 9f 9e 3c 80 c9 de bd 01 10 bf 3c 0a 39 67 3d
       0.0193634 -0.10878277 0.023323061 0.05645088
000120 fc b2 24 be 81 da b7 bb 2a b2 28 3d 1b e0 9a bd
       -0.16083902 -0.0056107645 0.041185535 -0.07562276
000130 d0 04 f1 bb 2d 28 1a bd 9f f7 d4 3d cd bd 46 3c
       -0.00735531 -0.03763597 0.103987925 0.012130213
000140 56 d8 d2 bd ed 9f 93 bd 8c 32 3a bd 9f 62 46 3d
       -0.10295169 -0.07208238 -0.04545836 0.048433896
000150 a6 e5 d1 bd 89 c5 bb bd d9 76 4d bd 90 b6 94 bd
       -0.1024888 -0.09168536 -0.05016217 -0.072613835
000160 5c 57 01 3e 50 07 2e bd e1 53 c5 bd be a7 1f 3c
       0.12630981 -0.042487442 -0.09635139 0.009744583
000170 83 24 a1 bc 85 df b4 bd 5b 53 1e bc 9e 44 a6 3c
       -0.01967073 -0.088316955 -0.009663428 0.020296391
000180 a0 19 f5 bc dc b1 ba bc 03 08 86 3c 31 b7 93 3d
       -0.029919446 -0.022789888 0.016361242 0.07212675
000190 e8 62 27 bd 73 9c 17 bc 0c ef 13 bc 69 a1 6d bc
       -0.04086581 -0.009253609 -0.009029161 -0.014503815
0001a0 24 76 05 3b 20 13 03 be 94 fd 18 3c 94 eb f2 bd
       0.0020364607 -0.12800264 0.0093378015 -0.11861339
0001b0 39 05 b1 bd 43 bb 14 bd 94 77 69 3c fa f7 36 3d
       -0.08643574 -0.0363114 0.014249701 0.044670083
0001c0 12 74 89 bd e3 b4 a5 bd b1 1d 41 3d 7e 92 9e 3d
       -0.06711592 -0.08091142 0.047147457 0.07742785
0001d0 e4 af 87 bd 7f dc 18 3d ee 27 a9 bd 02 44 b4 3d
       -0.06625345 0.037319656 -0.08259569 0.08802034
0001e0 03 08 14 3d f0 cb b3 bd 4f 38 57 bd e7 dc da bc
       0.036140453 -0.08779132 -0.052543934 -0.026716663
0001f0 19 78 c4 bd e0 15 a9 bd 77 e6 2f bd 52 23 9e bd
       -0.09593219 -0.082561255 -0.042944398 -0.077215806
000200 8a c4 5f 3f fb 3f 76 3f 5e 92 5a 3f 2d 23 78 3f
       0.8740927 0.96191376 0.8537959 0.96928674
000210 f5 4b 7d 3f e8 fd 83 3f 96 a6 7e 3f 50 a7 6d 3f
       0.98944026 1.0311861 0.9947294 0.92833424
000220 97 b1 6f 3f 44 38 89 3f c9 13 63 3f a7 79 69 3f
       0.93630356 1.0720296 0.88702065 0.9120125
000230 58 5a 80 3f f0 1c 6e 3f d5 ec 72 3f f0 c6 83 3f
       1.0027571 0.93012905 0.94892627 1.0295086
000240 05 d0 6f 3f 5d 56 7b 3f 08 5f 69 3f 7d 36 7b 3f
       0.9367679 0.98178655 0.9116063 0.9813002
000250 8f c5 75 3f f5 e6 56 3f 50 ca 78 3f 40 8a 7d 3f
       0.96004575 0.8394616 0.97183704 0.9903908
000260 11 a4 75 3f f6 50 85 3f f6 87 7d 3f c4 76 73 3f
       0.9595347 1.0415332 0.99035585 0.95103097
000270 46 43 77 3f b5 02 7f 3f 39 63 76 3f f2 94 7e 3f
       0.96587026 0.99613506 0.9624515 0.9944602
000280 32 11 82 3f 1b 61 81 3f 34 8d 7f 3f 32 2b 6a 3f
       1.0161498 1.0107759 0.99824834 0.9147216
000290 39 f1 75 3f fd 0a 84 3f f9 f1 74 3f 31 9d 83 3f
       0.960712 1.0315853 0.9568172 1.0282346
0002a0 e4 ea 75 3f f6 0c 74 3f 21 19 8f 3f 91 ee 6c 3f
       0.9606154 0.95332277 1.1179544 0.92551523
0002b0 1c 5e 66 3f ef 4e 6d 3f 45 65 83 3f 3b a6 79 3f
       0.8998735 0.9269857 1.026528 0.9751927
0002c0 d5 a3 7c 3f ba e0 81 3f 03 5d 83 3f a8 0a 7a 3f
       0.9868749 1.0146706 1.026276 0.9767251
0002d0 20 cd 61 3f 97 a9 7a 3f 7e c6 65 3f 24 bb 79 3f
       0.8820362 0.97915024 0.89756 0.9755118
0002e0 4a d7 80 3f 2c b8 70 3f 3d cb 7d 3f 0a 87 7d 3f
       1.0065701 0.94031024 0.9913824 0.9903418
0002f0 42 7b 74 3f 87 f5 77 3f 88 9c 69 3f 88 48 84 3f
       0.95500576 0.9685902 0.9125447 1.0334635
000300 50 f8 79 3f f0 73 5a 3f b4 df 7f 3f 77 9f 79 3f
       0.9764452 0.85333157 0.9995072 0.9750895
000310 5d 1b 85 3f 2b 9c 68 3f e6 cf 85 3f fc 6e 8e 3f
       1.0398976 0.90863293 1.045407 1.112762
000320 1f fb 5e 3f 28 44 77 3f e1 af 34 3f 30 ed 73 3f
       0.8710193 0.96588373 0.7058087 0.95283794
000330 33 d0 7a 3f 5c 4b 6b 3f ad 15 8f 3f bc c7 63 3f
       0.97973937 0.91911864 1.117849 0.88976645
000340 12 de 74 3f df 48 6d 3f 07 08 85 3f ac 4f 80 3f
       0.9565135 0.9268932 1.0393075 1.0024314
000350 0c e8 6e 3f b2 b6 77 3f 12 ed 81 3f c3 53 7a 3f
       0.93322825 0.96763146 1.0150473 0.9778406
000360 d1 5d 8a 3f 0d ad 7b 3f 8d a7 62 3f 24 47 83 3f
       1.080988 0.9831093 0.8853691 1.0256085
000370 7e 0b 60 3f 7a 1f 58 3f 60 8e 87 3f 53 d0 83 3f
       0.87517536 0.8442303 1.0590324 1.029795
000380 76 53 88 3f cd 22 61 3f 15 6b 81 3f 18 cf 86 3f
       1.065047 0.87943727 1.0110804 1.053195
000390 af 19 79 3f a5 6f 77 3f 5a 35 67 3f 8c 9b 80 3f
       0.97304815 0.9665473 0.90315783 1.0047469
0003a0 98 41 81 3f 87 58 74 3f 38 1c 78 3f d5 03 63 3f
       1.0098143 0.9544758 0.9691806 0.8867772
0003b0 f1 48 82 3f 78 26 72 3f e6 1b 74 3f 34 4f 6d 3f
       1.017851 0.9458995 0.9535507 0.9269898
0003c0 be 8a 71 3f 38 1f 78 3f f9 53 82 3f 14 7e 84 3f
       0.9435233 0.96922636 1.0181876 1.0350976
0003d0 cc e2 7a 3f 31 ea 80 3f dd dc 64 3f a4 fa 82 3f
       0.98002315 1.007147 0.8939951 1.023274
0003e0 63 9d 73 3f c3 ba 5e 3f f0 e2 7f 3f 25 b3 61 3f
       0.9516203 0.87003726 0.99955654 0.8816398
0003f0 84 7b 6a 3f 7e 91 5a 3f 03 9f 82 3f d3 76 7b 3f
       0.9159472 0.85378253 1.0204777 0.98228186

sequential_1/lstm_1/while/lstm_cell_1/MatMul_11 i1 [512, 128] scale=0.0058530285 zero_point=0
000000 0a 01 fc 1e 17 bb 1b 1b 02 01 02 0c ea 12 ce 08
       0.058530286 0.0058530285 -0.023412114 0.17559086 0.13461965 -0.40385896 0.15803178 0.15803178 0.011706057 0.0058530285 0.011706057 0.07023634 -0.12876663 0.10535451 -0.2926514 0.046824228
000010 07 d2 19 dc 14 d4 e7 2b 12 e1 e9 07 f6 ef ee ec
       0.0409712 -0.2692393 0.1463257 -0.21070902 0.11706057 -0.25753325 -0.1463257 0.25168023 0.10535451 -0.18144388 -0.13461965 0.0409712 -0.058530286 -0.09950148 -0.10535451 -0.11706057
000020 27 24 2d 08 05 fb f8 1f 0a 27 e0 d9 d8 d6 15 03
       0.22826812 0.21070902 0.26338628 0.046824228 0.029265143 -0.029265143 -0.046824228 0.18144388 0.058530286 0.22826812 -0.18729691 -0.22826812 -0.23412114 -0.2458272 0.1229136 0.017559085
000030 32 13 fb fe e7 da ff fc 29 f6 08 03 e7 f9 35 26
       0.2926514 0.111207545 -0.029265143 -0.011706057 -0.1463257 -0.22241509 -0.0058530285 -0.023412114 0.23997417 -0.058530286 0.046824228 0.017559085 -0.1463257 -0.0409712 0.3102105 0.22241509
000040 18 27 fc 1d c2 0e e1 0d 00 dd 0f e7 fe e1 20 40
       0.14047268 0.22826812 -0.023412114 0.16973783 -0.36288777 0.0819424 -0.18144388 0.07608937 0.0 -0.204856 0.08779543 -0.1463257 -0.011706057 -0.18144388 0.18729691 0.37459382
000050 d1 fa f1 15 18 16 f5 ed 13 ed fd 34 1d e1 dc 20
       -0.27509233 -0.03511817 -0.08779543 0.1229136 0.14047268 0.12876663 -0.06438331 -0.111207545 0.111207545 -0.111207545 -0.017559085 0.30435747 0.16973783 -0.18144388 -0.21070902 0.18729691
000060 16 04 2c 04 e1 1a 08 11 f8 22 e8 05 ff 00 0f fa
       0.12876663 0.023412114 0.25753325 0.023412114 -0.18144388 0.15217873 0.046824228 0.09950148 -0.046824228 0.19900297 -0.14047268 0.029265143 -0.0058530285 0.0 0.08779543 -0.03511817
000070 1d f6 e2 ef fa 1d db cb 0d fd ec ff 15 f1 2a 15
       0.16973783 -0.058530286 -0.17559086 -0.09950148 -0.03511817 0.16973783 -0.21656205 -0.3102105 0.07608937 -0.017559085 -0.11706057 -0.0058530285 0.1229136 -0.08779543 0.2458272 0.1229136
000080 07 e3 0b 0e 02 d2 21 07 b8 22 d8 c0 e4 e9 ff 10
       0.0409712 -0.16973783 0.06438331 0.0819424 0.011706057 -0.2692393 0.19314994 0.0409712 -0.42141804 0.19900297 -0.23412114 -0.37459382 -0.1638848 -0.13461965 -0.0058530285 0.093648456
000090 1a 01 08 0f b1 12 02 1e 1f f1 05 1a 06 fc 02 eb
       0.15217873 0.0058530285 0.046824228 0.08779543 -0.46238926 0.10535451 0.011706057 0.17559086 0.18144388 -0.08779543 0.029265143 0.15217873 0.03511817 -0.023412114 0.011706057 -0.1229136
0000a0 05 00 02 00 0f 10 25 e6 05 0d d0 2a 17 0d ea e8
       0.029265143 0.0 0.011706057 0.0 0.08779543 0.093648456 0.21656205 -0.15217873 0.029265143 0.07608937 -0.28094536 0.2458272 0.13461965 0.07608937 -0.12876663 -0.14047268
0000b0 ed 0f fa 27 eb 13 d9 fc 1b 33 23 06 63 27 17 e8
       -0.111207545 0.08779543 -0.03511817 0.22826812 -0.1229136 0.111207545 -0.22826812 -0.023412114 0.15803178 0.29850444 0.204856 0.03511817 0.57944983 0.22826812 0.13461965 -0.14047268
0000c0 01 f1 2f f2 cc 21 f6 f3 17 26 d7 03 01 f1 03 03
       0.0058530285 -0.08779543 0.27509233 -0.0819424 -0.30435747 0.19314994 -0.058530286 -0.07608937 0.13461965 0.22241509 -0.23997417 0.017559085 0.0058530285 -0.08779543 0.017559085 0.017559085
0000d0 03 1d f9 f7 2d 23 ee 24 22 fc ef 2e 03 e6 11 f3
       0.017559085 0.16973783 -0.0409712 -0.052677255 0.26338628 0.204856 -0.10535451 0.21070902 0.19900297 -0.023412114 -0.09950148 0.2692393 0.017559085 -0.15217873 0.09950148 -0.07608937
0000e0 0a 0c 0c 02 2d 33 f1 f0 2a e7 2b 0d ee 13 e1 2e
       0.058530286 0.07023634 0.07023634 0.011706057 0.26338628 0.29850444 -0.08779543 -0.093648456 0.2458272 -0.1463257 0.25168023 0.07608937 -0.10535451 0.111207545 -0.18144388 0.2692393
0000f0 fb e7 dd 0c 00 0c f7 e6 da 01 fc fa 1c ee 20 13
       -0.029265143 -0.1463257 -0.204856 0.07023634 0.0 0.07023634 -0.052677255 -0.15217873 -0.22241509 0.0058530285 -0.023412114 -0.03511817 0.1638848 -0.10535451 0.18729691 0.111207545

sequential_1/lstm_1/while/lstm_cell_1/MatMul i1 [512, 134] scale=0.014499237 zero_point=0
000000 f5 fa 01 fa fb 14 f5 f5 10 fa ff 10 f3 fb 09 f2
       -0.1594916 -0.08699542 0.014499237 -0.08699542 -0.07249618 0.28998473 -0.1594916 -0.1594916 0.23198779 -0.08699542 -0.014499237 0.23198779 -0.18849008 -0.07249618 0.13049313 -0.20298931
000010 fb 13 fe f9 24 f7 fb 2b f8 f5 30 f4 fb 1e f2 fb
       -0.07249618 0.2754855 -0.028998474 -0.101494655 0.52197254 -0.13049313 -0.07249618 0.6234672 -0.115993895 -0.1594916 0.6959634 -0.17399085 -0.07249618 0.4349771 -0.20298931 -0.07249618
000020 27 ff f5 35 ff fb 3d f6 f7 23 f7 fc 37 f4 fb 4a
       0.5654702 -0.014499237 -0.1594916 0.76845956 -0.014499237 -0.07249618 0.8844535 -0.14499237 -0.13049313 0.5074733 -0.13049313 -0.057996947 0.79745805 -0.17399085 -0.07249618 1.0729436
000030 f9 fb 4b fa 02 29 f6 f5 34 fd fc 41 f6 f9 53 fa
       -0.101494655 -0.07249618 1.0874428 -0.08699542 0.028998474 0.5944687 -0.14499237 -0.1594916 0.7539603 -0.04349771 -0.057996947 0.9424504 -0.14499237 -0.101494655 1.2034366 -0.08699542
000040 09 05 fd 05 f3 fd 04 fc fb 01 f8 f8 04 fe f9 04
       0.13049313 0.07249618 -0.04349771 0.07249618 -0.18849008 -0.04349771 0.057996947 -0.057996947 -0.07249618 0.014499237 -0.115993895 -0.115993895 0.057996947 -0.028998474 -0.101494655 0.057996947
000050 e3 01 08 ee 00 0d ee 02 06 f1 fc 06 e9 fb 0c f1
       -0.42047787 0.014499237 0.115993895 -0.26098627 0.0 0.18849008 -0.26098627 0.028998474 0.08699542 -0.21748856 -0.057996947 0.08699542 -0.33348244 -0.07249618 0.17399085 -0.21748856
000060 ff 09 f9 fb 08 06 fa 05 fd fc 08 ff 00 08 0f f5
       -0.014499237 0.13049313 -0.101494655 -0.07249618 0.115993895 0.08699542 -0.08699542 0.07249618 -0.04349771 -0.057996947 0.115993895 -0.014499237 0.0 0.115993895 0.21748856 -0.1594916
000070 00 13 03 08 03 fa 05 08 f8 08 14 00 00 17 fc 01
       0.0 0.2754855 0.04349771 0.115993895 0.04349771 -0.08699542 0.07249618 0.115993895 -0.115993895 0.115993895 0.28998473 0.0 0.0 0.33348244 -0.057996947 0.014499237
000080 01 f9 fa f8 1c fa 08 0d fe 11 0e f4 16 0c f0 16
       0.014499237 -0.101494655 -0.08699542 -0.115993895 0.40597862 -0.08699542 0.115993895 0.18849008 -0.028998474 0.24648702 0.20298931 -0.17399085 0.3189832 0.17399085 -0.23198779 0.3189832
000090 13 eb 15 0e f6 0d 10 f9 0f 0d f8 09 11 fb 0c 0e
       0.2754855 -0.30448398 0.30448398 0.20298931 -0.14499237 0.18849008 0.23198779 -0.101494655 0.21748856 0.18849008 -0.115993895 0.13049313 0.24648702 -0.07249618 0.17399085 0.20298931
0000a0 f7 0e 12 fd 0d 0e fa 13 14 f5 0c 12 00 08 0c 01
       -0.13049313 0.20298931 0.26098627 -0.04349771 0.18849008 0.20298931 -0.08699542 0.2754855 0.28998473 -0.1594916 0.17399085 0.26098627 0.0 0.115993895 0.17399085 0.014499237
0000b0 12 10 f9 09 0f 02 0c 11 06 0e 15 01 07 0e 04 13
       0.26098627 0.23198779 -0.101494655 0.13049313 0.21748856 0.028998474 0.17399085 0.24648702 0.08699542 0.20298931 0.30448398 0.014499237 0.101494655 0.20298931 0.057996947 0.2754855
0000c0 0f 08 10 15 11 fe 01 fd 03 04 fa 00 fb f7 fd 04
       0.21748856 0.115993895 0.23198779 0.30448398 0.24648702 -0.028998474 0.014499237 -0.04349771 0.04349771 0.057996947 -0.08699542 0.0 -0.07249618 -0.13049313 -0.04349771 0.057996947
0000d0 fc 01 01 f7 01 03 f3 fe 04 f0 02 fb ec ff 01 ee
       -0.057996947 0.014499237 0.014499237 -0.13049313 0.014499237 0.04349771 -0.18849008 -0.028998474 0.057996947 -0.23198779 0.028998474 -0.07249618 -0.28998473 -0.014499237 0.014499237 -0.26098627
0000e0 00 fe eb fd fa e7 04 00 ed fb fc ec fa fa f0 01
       0.0 -0.028998474 -0.30448398 -0.04349771 -0.08699542 -0.3624809 0.057996947 0.0 -0.2754855 -0.07249618 -0.057996947 -0.28998473 -0.08699542 -0.08699542 -0.23198779 0.014499237
0000f0 fd e5 fe ff ee fb fe f0 fb f9 ee 05 01 e9 04 ff
       -0.04349771 -0.3914794 -0.028998474 -0.014499237 -0.26098627 -0.07249618 -0.028998474 -0.23198779 -0.07249618 -0.101494655 -0.26098627 0.07249618 0.014499237 -0.33348244 0.057996947 -0.014499237

sequential_1/lstm_1_2/while/lstm_cell_1/add_1/ReadVariableOp f4 [256]
000000 79 96 19 bd 5c 36 5a bc 6b 8a d1 bd d3 c3 1e 3c
       -0.037497018 -0.013318624 -0.10231479 0.009690243
000010 c4 52 03 bc 33 0a 51 be 1e fe 87 bd 53 0f 56 be
       -0.008015338 -0.20414047 -0.06640266 -0.20904283
000020 2c 0d 4e 3d fd 3e 99 bd f6 76 33 be b9 88 8e 3b
       0.05030553 -0.07482717 -0.17525849 0.0043497947
000030 77 c6 b9 bd 79 18 4c bd 92 af 87 bd 9b 88 a6 bc
       -0.09071057 -0.049828026 -0.06625284 -0.02032881
000040 53 77 ee bd b3 84 e8 bd 5c 2e d0 bd c4 fe 0e 3e
       -0.11643853 -0.11353435 -0.10165092 0.13964373
000050 0f 88 a8 bc 86 9a b1 bd 8f 96 ed bd 94 a8 df bd
       -0.02057269 -0.08672051 -0.116009824 -0.109208256
000060 c4 03 c2 bd 55 a0 86 3b 6b d5 09 be 16 35 2a bd
       -0.094733745 0.0041084685 -0.13460319 -0.041554533
000070 30 88 90 3d 41 56 f4 bd 7a 74 e9 bd 09 db 43 be
       0.07057226 -0.11930514 -0.11399169 -0.19126524
000080 7d f5 03 bd b3 42 b4 bb 9c 4b 21 be 91 5b ff bb
       -0.032216538 -0.005501115 -0.15751499 -0.007792898
000090 0d fe 88 3d 8e f2 2a be 2c 81 f2 bd 5c ca 15 3d
       0.06689081 -0.1669409 -0.11841044 0.036569938
0000a0 5e 7e 1f bd 2d 5b fa bc bd 1d a7 3b 35 25 c2 3b
       -0.038938873 -0.030561054 0.0050999806 0.0059248456
0000b0 bd 9b 2d bd 13 6c 2b be c6 3e 80 3d b7 2c 73 bd
       -0.04238485 -0.16740446 0.06261973 -0.059368815
0000c0 1b a5 18 be a6 0f 98 bd 70 0e 52 bd 2d c5 2e bd
       -0.14906733 -0.0742486 -0.0512833 -0.04266851
0000d0 27 0b 30 bd aa 74 df bd ad 58 04 be 64 f9 85 bd
       -0.042979386 -0.10910924 -0.12924452 -0.06541708
0000e0 ab 57 92 bd 17 c3 16 be b6 26 6a bc fd 2c 2b be
       -0.071456276 -0.14722858 -0.014291456 -0.1671638
0000f0 99 66 06 be 4d 58 39 be 31 5e a5 bd 11 6d b0 bd
       -0.13125075 -0.1810009 -0.08074606 -0.08614553
000100 33 f9 8d 3f 24 10 8d 3f 33 23 7f 3f af 0e 85 3f
       1.1091675 1.1020551 0.99663085 1.0395106
000110 b6 e1 65 3f dd 99 68 3f 43 5c 74 3f 13 5a 65 3f
       0.8979753 0.90859777 0.9545328 0.8959057
000120 38 f7 85 3f 84 fd 67 3f e9 63 74 3f b2 66 a9 3f
       1.046607 0.9062121 0.9546495 1.3234465
000130 49 01 88 3f 27 65 80 3f 6c 2d 6f 3f 83 7a 87 3f
       1.0625392 1.0030869 0.93428683 1.0584263
000140 40 0c 80 3f 7b 93 94 3f 26 a2 8b 3f e8 b0 7c 3f
       1.0003738 1.1607507 1.0908859 0.9870744
000150 3d df 6b 3f 23 ff 92 3f 83 b5 88 3f ed 7f 9d 3f
       0.9213751 1.1484112 1.0680393 1.2304665
000160 ef 5f 8c 3f fc 17 82 3f 59 31 74 3f 68 86 8b 3f
       1.0966777 1.016357 0.953878 1.0900393
000170 4b cf a5 3f af 1f 94 3f 18 05 81 3f 62 4d 8e 3f
       1.2953886 1.1572169 1.007968 1.1117365
000180 d1 9e 8a 3f 5c 23 88 3f c6 d6 83 3f 64 5b 99 3f
       1.0829717 1.0635791 1.0299919 1.1981015
000190 76 1a 82 3f e9 97 8c 3f 9b 19 86 3f 42 52 91 3f
       1.0164325 1.0983859 1.0476564 1.1353228
0001a0 4f 88 82 3f 1e 3b 8c 3f a3 97 99 3f fd f2 77 3f
       1.0197848 1.0955541 1.1999401 0.96855146
0001b0 e5 15 70 3f 0f 17 85 3f 82 c9 95 3f c1 d3 6d 3f
       0.9378341 1.0397662 1.170212 0.92901236
0001c0 ae 74 82 3f ed 01 7c 3f a7 03 9e 3f 4a 6f 88 3f
       1.0191858 0.9844044 1.2344865 1.0658963
0001d0 3f f6 94 3f d1 aa 81 3f 17 5a 89 3f 1f 6e 96 3f
       1.1637648 1.0130254 1.0730618 1.1752356
0001e0 31 99 94 3f 1b d8 73 3f a5 75 8b 3f 63 bd 6c 3f
       1.160925 0.95251626 1.0895277 0.9247648
0001f0 af dd 83 3f df ac 75 3f e5 07 86 3f f5 e8 91 3f
       1.0302027 0.95966905 1.0471159 1.1399218
000200 e9 a8 b4 3d 01 93 be 3d b9 86 10 3c e8 3f 2b bd
       0.088212796 0.093053825 0.008821183 -0.041808993
000210 bd 21 da 3d 85 e3 41 3c 05 7a 05 3d 09 77 4f 3d
       0.10650966 0.01183403 0.03258707 0.05065063
000220 65 78 8d bc 02 33 2d bc f4 9c 64 3c 62 26 4d 3d
       -0.017269323 -0.010571243 0.013953436 0.050085433
000230 c3 30 5e bd ff e3 9a 3d 98 a1 3e 3d 11 de c2 3b
       -0.05424572 0.07563018 0.046540827 0.0059468825
000240 20 77 2d bd e6 ab 56 bc f4 7b d2 3c 85 94 d9 3d
       -0.042349935 -0.013102507 0.025693871 0.10624031
000250 e7 fa 67 3d f0 cd 01 be 43 c5 40 3d 77 73 b0 3b
       0.056635763 -0.12676215 0.047063123 0.005384858
000260 fe 9c ae bc bd 62 da bc f1 2e ff bb 01 88 01 be
       -0.021315094 -0.02665841 -0.0077875783 -0.12649538
000270 3a 96 81 bd fe cf 22 3c be d8 82 bc bc a8 c1 3d
       -0.063274816 0.0099372845 -0.015972491 0.09456012
000280 02 3f d1 3c 00 2e c2 bd 58 2c 15 bd c6 0c 94 bd
       0.02554274 -0.0948143 -0.036419243 -0.07228999
000290 7d 42 c6 3d bb 8f a5 bd 86 b9 90 bc 37 44 2a 3d
       0.096806504 -0.08084055 -0.01766659 0.04156896
0002a0 15 fb 27 3d cb 9a bf 3c 0c 7a 09 3d 66 20 01 bb
       0.041010935 0.02338924 0.03356366 -0.001970315
0002b0 ca 65 fc bc 9e 1b 80 bd 8d 0f 16 3d f5 95 14 bd
       -0.030810256 -0.062552676 0.036635924 -0.036275823
0002c0 55 d1 c1 bc 22 ff fa 3c 8f 1f a8 3c 69 b6 94 3d
       -0.023659388 0.030639235 0.02052286 0.072613545
0002d0 4e 38 e1 3c 4a f8 5a bd e9 a5 85 bd 27 f0 59 bd
       0.027492668 -0.053459443 -0.065257855 -0.053207543
0002e0 94 8c ca 3d 11 2f 23 bd 64 31 e4 bc 97 f2 31 3b
       0.098900944 -0.039839808 -0.027855583 0.0027152651
0002f0 86 e2 c0 3d 19 3b c4 bd 86 64 9c bd c0 5f 50 bd
       0.09418206 -0.095815845 -0.07636361 -0.050872564
000300 06 31 c7 bb 50 c5 7d 3a 2d 75 c7 bd 77 bd 09 3d
       -0.006078842 0.0009680586 -0.097391464 0.033627953
000310 df 22 99 3d ab b8 f5 bd 62 73 12 bd 72 d3 29 bd
       0.07477354 -0.11998113 -0.03575457 -0.041461416
000320 93 75 e0 bc d5 87 ca 3d 48 06 45 3d 76 40 b9 3d
       -0.027399814 0.09889189 0.048101693 0.09045498
000330 28 dc d1 3c aa 4e 09 3d 29 f7 26 bc 47 b5 4b bc
       0.025617674 0.033522286 -0.0101907635 -0.012433357
000340 2e 71 6b 3d 0b 09 84 3d be 50 4a 3e 9a 5a d5 3d
       0.057480983 0.06447037 0.19757363 0.104176715
000350 dd b8 3a 3c 8c 86 a4 bb 6b ea cd 3c c2 9e 66 3d
       0.011396614 -0.005020922 0.025136193 0.056303747
000360 bc 5b 1b bc 38 66 51 bd ff 03 ba 3c 3b 1d b1 3c
       -0.00948232 -0.051122874 0.022706984 0.021620383
000370 78 2d 5c 3b 46 9c 2a 3d ab 9f 98 3d fa 35 28 ba
       0.0033596437 0.04165294 0.07452329 -0.00064167345
000380 a5 04 48 3c 33 0b b4 3d d1 81 6e bd 3c 01 99 3c
       0.012208139 0.087911986 -0.05822927 0.018677346
000390 d1 da 83 3d c0 7d 4c 3d 41 cd 45 3d 2e f7 3e 3d
       0.0643822 0.049924612 0.04829145 0.046622448
0003a0 aa 61 1e 3e 9a 90 90 ba d4 00 0a 3d 99 74 15 3a
       0.15466943 -0.0011029423 0.033692196 0.00057012733
0003b0 dc 65 98 3d 3c 47 9a 3d 13 bd da 3d 5b fd c4 3d
       0.07441303 0.07533118 0.10680594 0.09618636
0003c0 b2 8e 53 bd 66 46 39 3d ed c4 98 3d 56 27 84 3d
       -0.051649757 0.045233153 0.074594356 0.06452815
0003d0 cb d4 4e 3b a4 b4 ff bc dd 25 98 3d 22 54 f3 3d
       0.003155994 -0.031214066 0.07429097 0.118812814
0003e0 75 d9 97 3b bc 47 17 3d 0f 53 80 3b 9e d1 5c 3d
       0.004634077 0.036933646 0.0039161514 0.053910844
0003f0 96 94 89 bc 74 ba d6 3c 74 1d 8e bd 61 ac dd bd
       -0.016794484 0.026211955 -0.069392115 -0.10823894

sequential_1/lstm_1_2/while/lstm_cell_1/MatMul_11 i1 [256, 64] scale=0.005535555 zero_point=0
000000 04 f5 00 06 06 00 db 24 12 09 29 f9 e5 e9 f0 c8
       0.02214222 -0.060891107 0.0 0.033213332 0.033213332 0.0 -0.20481554 0.19927998 0.09963999 0.049819995 0.22695775 -0.038748886 -0.14945999 -0.12731777 -0.08856888 -0.3099911
000010 07 25 fc 1b 1d 05 f8 f1 1b e8 03 06 e8 24 da 29
       0.038748886 0.20481554 -0.02214222 0.14945999 0.1605311 0.027677774 -0.04428444 -0.08303332 0.14945999 -0.13285333 0.016606666 0.033213332 -0.13285333 0.19927998 -0.2103511 0.22695775
000020 e1 11 fa e6 dd 29 25 0b dc fb ee 24 d4 fd 07 eb
       -0.1716022 0.09410444 -0.033213332 -0.14392443 -0.19374442 0.22695775 0.20481554 0.060891107 -0.19927998 -0.027677774 -0.09963999 0.19927998 -0.24356443 -0.016606666 0.038748886 -0.116246656
000030 06 20 27 ff 04 db f8 fd fd fc 07 e3 da ea e4 0e
       0.033213332 0.17713776 0.21588665 -0.005535555 0.02214222 -0.20481554 -0.04428444 -0.016606666 -0.016606666 -0.02214222 0.038748886 -0.1605311 -0.2103511 -0.12178221 -0.15499555 0.07749777
000040 0b e1 fb 13 df 02 e2 05 0c 10 e0 ca 02 fb 25 ea
       0.060891107 -0.1716022 -0.027677774 0.10517555 -0.18267332 0.01107111 -0.16606665 0.027677774 0.066426665 0.08856888 -0.17713776 -0.29891998 0.01107111 -0.027677774 0.20481554 -0.12178221
000050 21 ff 15 05 ef 40 14 23 3c e1 f2 fe 14 2b 22 1d
       0.18267332 -0.005535555 0.116246656 0.027677774 -0.09410444 0.35427552 0.1107111 0.19374442 0.3321333 -0.1716022 -0.07749777 -0.01107111 0.1107111 0.23802887 0.18820888 0.1605311
000060 0c 16 2a 32 01 1b d0 ff d5 e9 13 f6 c9 fe 07 c9
       0.066426665 0.12178221 0.23249331 0.27677774 0.005535555 0.14945999 -0.26570666 -0.005535555 -0.23802887 -0.12731777 0.10517555 -0.05535555 -0.30445552 -0.01107111 0.038748886 -0.30445552
000070 e0 fc c4 02 cd 05 43 f5 02 1a 27 ed e6 1d 04 ee
       -0.17713776 -0.02214222 -0.3321333 0.01107111 -0.28231332 0.027677774 0.37088218 -0.060891107 0.01107111 0.14392443 0.21588665 -0.10517555 -0.14392443 0.1605311 0.02214222 -0.09963999
000080 d8 fd fa 49 20 31 28 16 02 3d 1b e4 0e 3d c5 cd
       -0.2214222 -0.016606666 -0.033213332 0.40409553 0.17713776 0.2712422 0.2214222 0.12178221 0.01107111 0.33766887 0.14945999 -0.15499555 0.07749777 0.33766887 -0.32659775 -0.28231332
000090 fb 39 fb ee f3 18 15 05 f5 e2 d7 21 14 ed 00 03
       -0.027677774 0.31552663 -0.027677774 -0.09963999 -0.071962215 0.13285333 0.116246656 0.027677774 -0.060891107 -0.16606665 -0.22695775 0.18267332 0.1107111 -0.10517555 0.0 0.016606666
0000a0 0e 17 02 fe 25 c9 09 13 de 39 24 48 1f 0b 09 d9
       0.07749777 0.12731777 0.01107111 -0.01107111 0.20481554 -0.30445552 0.049819995 0.10517555 -0.18820888 0.31552663 0.19927998 0.39855996 0.1716022 0.060891107 0.049819995 -0.21588665
0000b0 12 e3 d2 18 e8 15 e0 02 13 18 3c fc cd 1f 10 33
       0.09963999 -0.1605311 -0.25463554 0.13285333 -0.13285333 0.116246656 -0.17713776 0.01107111 0.10517555 0.13285333 0.3321333 -0.02214222 -0.28231332 0.1716022 0.08856888 0.28231332
0000c0 2c 45 e5 1d fe e8 1f 1f fa 03 cb 35 06 02 08 e5
       0.24356443 0.3819533 -0.14945999 0.1605311 -0.01107111 -0.13285333 0.1716022 0.1716022 -0.033213332 0.016606666 -0.29338443 0.29338443 0.033213332 0.01107111 0.04428444 -0.14945999
0000d0 14 f7 f8 0a 14 f4 25 dd 21 db ea 01 ed f7 11 0b
       0.1107111 -0.049819995 -0.04428444 0.05535555 0.1107111 -0.066426665 0.20481554 -0.19374442 0.18267332 -0.20481554 -0.12178221 0.005535555 -0.10517555 -0.049819995 0.09410444 0.060891107
0000e0 02 f8 04 26 18 f8 eb 01 f2 e6 1e 07 1d 29 1d 0d
       0.01107111 -0.04428444 0.02214222 0.2103511 0.13285333 -0.04428444 -0.116246656 0.005535555 -0.07749777 -0.14392443 0.16606665 0.038748886 0.1605311 0.22695775 0.1605311 0.071962215
0000f0 bd 20 0c 14 ff 44 2a df 1a 0e f2 1c cf 11 1d d5
       -0.37088218 0.17713776 0.066426665 0.1107111 -0.005535555 0.37641776 0.23249331 -0.18267332 0.14392443 0.07749777 -0.07749777 0.15499555 -0.2712422 0.09410444 0.1605311 -0.23802887

sequential_1/lstm_1_2/while/lstm_cell_1/MatMul i1 [256, 128] scale=0.0061300197 zero_point=0
000000 0f 35 22 e2 05 e4 b6 e0 13 06 37 06 26 19 16 f0
       0.0919503 0.32489103 0.20842066 -0.1839006 0.030650098 -0.17164055 -0.45362145 -0.19616063 0.116470374 0.03678012 0.33715108 0.03678012 0.23294075 0.15325049 0.13486043 -0.098080315
000010 fc da db eb 09 da 19 bf f5 f9 03 f2 e7 1c ff df
       -0.024520079 -0.23294075 -0.22681072 -0.12873042 0.05517018 -0.23294075 0.15325049 -0.39845127 -0.06743021 -0.042910136 0.01839006 -0.08582027 -0.15325049 0.17164055 -0.0061300197 -0.20229065
000020 e4 e2 16 0f 26 ff 0e fa ef e3 25 ec c5 04 f7 cd
       -0.17164055 -0.1839006 0.13486043 0.0919503 0.23294075 -0.0061300197 0.08582027 -0.03678012 -0.10421033 -0.17777057 0.22681072 -0.12260039 -0.36167115 0.024520079 -0.05517018 -0.312631
000030 f3 fd 12 f1 2d f8 07 b3 2a 06 cd 1f fa 0c 14 0e
       -0.079690255 -0.01839006 0.11034036 -0.0919503 0.2758509 -0.049040157 0.042910136 -0.4720115 0.25746083 0.03678012 -0.312631 0.1900306 -0.03678012 0.07356024 0.12260039 0.08582027
000040 40 05 fb 04 cd fd f0 20 02 05 1e fd 17 f2 4e 28
       0.39232126 0.030650098 -0.030650098 0.024520079 -0.312631 -0.01839006 -0.098080315 0.19616063 0.012260039 0.030650098 0.1839006 -0.01839006 0.14099045 -0.08582027 0.47814155 0.24520078
000050 e3 e8 02 1b ed 12 fb 23 e1 f8 06 05 c6 09 20 12
       -0.17777057 -0.14712048 0.012260039 0.16551054 -0.116470374 0.11034036 -0.030650098 0.21455069 -0.1900306 -0.049040157 0.03678012 0.030650098 -0.35554114 0.05517018 0.19616063 0.11034036
000060 0d f3 18 f5 31 13 1d ed 36 0f f0 1d f0 f6 01 df
       0.079690255 -0.079690255 0.14712048 -0.06743021 0.30037096 0.116470374 0.17777057 -0.116470374 0.33102107 0.0919503 -0.098080315 0.17777057 -0.098080315 -0.061300196 0.0061300197 -0.20229065
000070 fe 27 fb f1 e8 1e f6 fa 33 03 e7 ee ea 19 04 f6
       -0.012260039 0.23907077 -0.030650098 -0.0919503 -0.14712048 0.1839006 -0.061300196 -0.03678012 0.312631 0.01839006 -0.15325049 -0.11034036 -0.13486043 0.15325049 0.024520079 -0.061300196
000080 e7 16 03 eb f8 e8 15 e2 01 28 c7 dc ef 16 30 36
       -0.15325049 0.13486043 0.01839006 -0.12873042 -0.049040157 -0.14712048 0.12873042 -0.1839006 0.0061300197 0.24520078 -0.34941113 -0.22068071 -0.10421033 0.13486043 0.29424095 0.33102107
000090 13 ef 11 21 f7 09 f8 20 4e f4 08 fd 40 eb f3 0e
       0.116470374 -0.10421033 0.10421033 0.20229065 -0.05517018 0.05517018 -0.049040157 0.19616063 0.47814155 -0.07356024 0.049040157 -0.01839006 0.39232126 -0.12873042 -0.079690255 0.08582027
0000a0 53 ff ef 04 ed 1e 2e dd 0b f0 ed 0a 04 29 1d 0c
       0.5087916 -0.0061300197 -0.10421033 0.024520079 -0.116470374 0.1839006 0.2819809 -0.21455069 0.06743021 -0.098080315 -0.116470374 0.061300196 0.024520079 0.2513308 0.17777057 0.07356024
0000b0 ec 03 21 29 01 01 39 27 23 f6 c9 d3 f1 e6 22 07
       -0.12260039 0.01839006 0.20229065 0.2513308 0.0061300197 0.0061300197 0.34941113 0.23907077 0.21455069 -0.061300196 -0.33715108 -0.2758509 -0.0919503 -0.15938051 0.20842066 0.042910136
0000c0 bd 14 06 1b ea e9 f6 0f dc 22 02 f4 f4 df f8 04
       -0.41071132 0.12260039 0.03678012 0.16551054 -0.13486043 -0.14099045 -0.061300196 0.0919503 -0.22068071 0.20842066 0.012260039 -0.07356024 -0.07356024 -0.20229065 -0.049040157 0.024520079
0000d0 c5 f3 e7 19 0c 06 07 15 ed ff e5 36 f6 21 fc 2a
       -0.36167115 -0.079690255 -0.15325049 0.15325049 0.07356024 0.03678012 0.042910136 0.12873042 -0.116470374 -0.0061300197 -0.16551054 0.33102107 -0.061300196 0.20229065 -0.024520079 0.25746083
0000e0 ce 28 e8 1c 05 ec 12 fd ef f0 f3 40 03 1a 29 12
       -0.30650097 0.24520078 -0.14712048 0.17164055 0.030650098 -0.12260039 0.11034036 -0.01839006 -0.10421033 -0.098080315 -0.079690255 0.39232126 0.01839006 0.15938051 0.2513308 0.11034036
0000f0 f3 ee 34 ac da 08 e9 b6 e4 f5 14 e9 fa 20 05 0a
       -0.079690255 -0.11034036 0.31876102 -0.51492167 -0.23294075 0.049040157 -0.14099045 -0.45362145 -0.17164055 -0.06743021 0.12260039 -0.14099045 -0.03678012 0.19616063 0.030650098 0.061300196
