app/src/main/assets/gesture_model.tflite (tflite, 229920 bytes, 10 tensors)

arith.constant11 f4 [2]
-0.0064808503 0.0064809043
00000000: 505d d4bb c45d d43b

arith.constant12 f4 [64]
0.049546774 -0.011983368 0.061933026 -0.1118705 0.0926555 0.06688014 0.009092403 -0.021950047
0.056900725 0.030372625 -0.061673027 -0.05191438 0.024314614 0.08462544 0.079185225 -0.06473981
0.010062288 0.040672727 -0.081626154 0.026770806 -0.01134054 -0.031811338 -0.05449778 0.00594934
0.020719059 0.031289164 0.08817334 0.034264132 -0.0045570615 0.020557305 0.047079403 0.09768082
0.039942358 0.009197469 0.09738553 0.10515457 -0.074290656 0.0024151187 -0.0753294 -0.03678445
-0.09688973 -0.065063044 0.011481257 0.020622345 -0.052582607 0.08637493 0.0008858667 0.033249088
0.037307516 -0.12867045 -0.008672611 -0.08790227 0.05590558 0.017191177 -0.0011446679 0.06672621
0.030439636 0.023404121 0.05045899 0.010917061 0.0461758 -0.063155554 -0.024968771 -0.13022745
00000000: 8ff1 4a3d e355 44bc 7cad 7d3d 5c1c e5bd
00000010: 2bc2 bd3d 74f8 883d 4df8 143c 96d0 b3bc
00000020: bc10 693d 03d0 f83c db9c 7cbd 2ca4 54bd
00000030: 712f c73c 1a50 ad3d dd2b a23d 4e96 84bd
00000040: 4bdc 243c 7298 263d 9d2b a7bd 734e db3c
00000050: accd 39bc 9b4c 02bd 1039 5fbd aef2 c23b
00000060: 04bb a93c 1129 003d 3994 b43d 8c58 0c3d
00000070: 6753 95bb cb67 a83c 55d6 403d e20c c83d
00000080: 999a 233d fbb0 163c 1172 c73d 475b d73d
00000090: b325 98bd f846 1e3b 4d46 9abd 4bab 16bd
000000a0: 1f6e c6bd c63f 85bd e21b 3c3c 31f0 a83c
000000b0: dc60 57bd 57e5 b03d 8239 683a 3230 083d
000000c0: c4cf 183d 30c2 03be 9117 0ebc 1b06 b4bd
000000d0: 40fd 643d 83d4 8c3c ae08 96ba c0a7 883d
000000e0: 8b5c f93c 00ba bf3c 16ae 4e3d 79dd 323c
000000f0: d622 3d3d b357 81bd 4f8b ccbc 585a 05be

arith.constant16 f4 [2, 64]
0.23547605 0.14613943 0.2614058 -0.15421861 -0.047496032 -0.17900075 0.18401812 0.09848135
0.35954678 -0.33380786 0.22583213 -0.15858686 0.07119783 0.35964876 -0.19911766 0.28952056
0.1945639 -0.14947304 0.19833598 0.12952742 -0.31513798 0.13969404 0.09467416 -0.034734577
-0.022015097 -0.26594448 0.31648564 0.27656627 0.08713001 0.17515284 0.35010478 0.23124926
-0.0689574 0.23965497 -0.10733463 -0.35075194 0.043396935 -0.20681028 0.18565863 0.11330646
0.19069518 -0.2573012 0.27003258 -0.12848692 -0.03377389 -0.31238115 -0.111666776 0.24565984
0.07128036 -0.09869631 -0.23265652 0.1540814 0.08522764 -0.21393426 0.29343337 -0.24652769
-0.11591405 0.06988271 -0.08316896 0.2993403 -0.15707932 -0.21972114 -0.093808375 0.09058149
-0.12766574 0.037210327 -0.15809238 -0.20003799 0.17900491 0.25337982 0.021641761 -0.24901941
-0.14372611 -0.09785734 0.21263918 -0.17613913 -0.18002295 0.106053755 0.20724052 0.16146554
0.08137219 0.11383212 0.25638998 -0.05984432 0.26911607 -0.13932092 0.12937345 -0.1781295
-0.23943122 0.22549804 -0.16362017 -0.23793873 -0.065096594 -0.014998795 0.15103652 -0.22828403
0.1953664 -0.10227824 0.25051025 0.31712908 0.11942553 -0.16683662 0.16098328 0.21433073
0.15786749 -0.2218625 0.07118315 0.062487964 -0.15771495 0.21491429 0.15255916 0.045483034
0.3188442 0.018455667 -0.18377094 0.15507954 -0.31582096 0.19656281 -0.3091826 0.32434013
0.23360512 0.26466846 0.23673221 -0.10677838 0.11460196 -0.27368164 -0.092470676 0.09792014
00000000: a220 713e 93a5 153e fbd6 853e 7ceb 1dbe
00000010: 338b 42bd f94b 37be 3f6f 3c3e 97b0 c93d
00000020: 8416 b83e dde8 aabe 8a40 673e 9864 22be
00000030: 2bd0 913d e223 b83e 80e5 4bbe 0a3c 943e
00000040: c23b 473e 760f 19be 9618 4b3e d6a2 043e
00000050: c459 a1be f40b 0f3e 87e4 c13d d845 0ebd
00000060: 0159 b4bc e029 88be 680a a23e 189a 8d3e
00000070: 3871 b23d 445b 333e ef40 b33e 9bcc 6c3e
00000080: 8a39 8dbd 1d68 753e 42d2 dbbd c295 b3be
00000090: fcc0 313d 13c6 53be 4c1d 3e3e 380d e83d
000000a0: 9945 433e fcbc 83be b641 8a3e 1392 03be
000000b0: 7e56 0abd 6cf0 9fbe 8db1 e4bd 418e 7b3e
000000c0: 70fb 913d 4a21 cabd 833d 6ebe 84c7 1d3e
000000d0: d48b ae3d 9511 5bbe e63c 963e c171 7cbe
000000e0: 5864 edbd ab1e 8f3d 7d54 aabd 2243 993e
000000f0: 67d9 20be 94fe 60be 9b1e c0bd ca82 b93d
00000100: cfba 02be db69 183d f8e2 21be c2d6 4cbe
00000110: 104d 373e 00bb 813e 104a b13c f2fe 7ebe
00000120: f02c 13be 6e69 c8bd 16be 593e d15d 34be
00000130: f057 38be b632 d93d dc36 543e 3957 253e
00000140: 76a6 a63d d120 e93d 8c45 833e 511f 75bd
00000150: 95c9 893e 25aa 0ebe 797a 043e 9467 36be
00000160: 752d 75be f5e8 663e 0c8c 27be 36a6 73be
00000170: 5d51 85bd 82bd 75bc 51a9 1a3e 4ac3 69be
00000180: 210e 483e 4177 d1bd e142 803e be5e a23e
00000190: 5f95 f43d 38d7 2abe cdd8 243e 8479 5b3e
000001a0: 04a8 213e ec2f 63be 79c8 913d 61f3 7f3d
000001b0: 0780 21be 7e12 5c3e 7838 1c3e 6b4c 3a3d
000001c0: 8c3f a33e 5730 973c 732e 3cbe 2ccd 1e3e
000001d0: 49b3 a1be c347 493e 2f4d 9ebe e90f a63e
000001e0: 2e36 6f3e a082 873e ee69 723e a0ae dabd
000001f0: 6fb4 ea3d 0020 8cbe 4461 bdbd 5b8a c83d

tfl.pseudo_qconst i1 [64, 64]
-22 -5 -89 -18 29 -21 15 -35
-79 -35 63 -8 -7 -9 -40 -68
28 7 -5 -18 -77 111 53 51
82 31 -65 8 -58 -25 -82 -85
-29 -58 -127 41 -24 21 -75 -8
-20 -85 -47 2 -17 -13 88 38
-10 -32 -23 -73 51 42 -76 -25
-16 70 33 -94 -20 -54 60 74
32 108 -107 -56 58 -10 -48 -27
89 5 -60 26 -114 -88 55 -17
32 27 49 54 -34 70 34 51
-68 -118 -39 9 -69 -69 60 -43
0 -110 -38 -60 11 123 12 -28
-108 -114 -54 -29 2 14 34 -73
-109 -111 -56 -64 5 9 46 49
68 95 -124 -28 30 -127 -3 91
-8 -17 -50 111 -57 33 12 -75
-18 73 83 24 -37 35 54 -64
-2 -30 74 37 44 -6 67 -16
21 44 39 90 24 -113 -31 -56
54 -60 40 91 -7 116 -72 -26
1 109 21 -62 5 82 56 -31
-52 -118 -63 -75 94 -13 -116 70
1 127 64 -12 19 -40 72 84
59 96 -13 24 36 36 -22 -15
73 -43 53 -25 -36 -72 -78 -21
12 -68 -10 56 60 -25 27 -59
107 -61 -8 -29 23 -73 80 64
31 -16 -55 117 -69 45 -24 83
-51 29 127 -81 -86 81 47 81
-112 45 56 -93 -43 61 86 36
22 71 61 97 2 -6 53 -60
00000000: eafb a7ee 1deb 0fdd b1dd 3ff8 f9f7 d8bc
00000010: 1c07 fbee b36f 3533 521f bf08 c6e7 aeab
00000020: e3c6 8129 e815 b5f8 ecab d102 eff3 5826
00000030: f6e0 e9b7 332a b4e7 f046 21a2 ecca 3c4a
00000040: 206c 95c8 3af6 d0e5 5905 c41a 8ea8 37ef
00000050: 201b 3136 de46 2233 bc8a d909 bbbb 3cd5
00000060: 0092 dac4 0b7b 0ce4 948e cae3 020e 22b7
00000070: 9391 c8c0 0509 2e31 445f 84e4 1e81 fd5b
00000080: f8ef ce6f c721 0cb5 ee49 5318 db23 36c0
00000090: fee2 4a25 2cfa 43f0 152c 275a 188f e1c8
000000a0: 36c4 285b f974 b8e6 016d 15c2 0552 38e1
000000b0: cc8a c1b5 5ef3 8c46 017f 40f4 13d8 4854
000000c0: 3b60 f318 2424 eaf1 49d5 35e7 dcb8 b2eb
000000d0: 0cbc f638 3ce7 1bc5 6bc3 f8e3 17b7 5040
000000e0: 1ff0 c975 bb2d e853 cd1d 7faf aa51 2f51
000000f0: 902d 38a3 d53d 5624 1647 3d61 02fa 35c4

arith.constant19 f4 [512]
0.032379076 0.058812086 -0.11391933 -0.018556643 0.052403733 0.029109042 -0.029197775 0.079616986
-0.018955957 -0.054762013 -0.0385287 -0.022936337 -0.013324947 0.025104187 0.022225607 0.082719296
-0.053596105 -0.106138095 -0.06196252 -0.04755737 -0.0009268525 -0.02955606 0.04137743 -0.03838352
-0.014917299 0.09053611 -0.025698401 -0.0053112637 0.074691065 0.022501243 0.030543324 -0.095449634
-0.024590198 0.023413733 -0.013263336 -0.0014229491 -0.02344048 -0.023541601 -0.0014505245 0.062634185
0.009683248 0.036915384 -0.038142364 0.10331751 -0.04457134 -0.030731484 0.059017032 0.029464033
-0.008997232 -0.0203324 -0.022988856 0.018952863 -0.04918757 0.0063826814 -0.04891222 0.08091666
-0.06434641 -0.086433575 -0.06393776 -0.08611777 -0.03216068 0.016146429 -0.029051054 0.0308337
0.010479157 -0.06243403 0.024649767 -0.015238395 0.03034986 -0.024867019 -0.019039785 0.01619642
0.051466018 -0.04803769 -0.0038309551 0.018963981 0.016115809 -0.067497835 0.03242083 -0.041574154
-0.022791307 -0.013338986 0.062868975 -0.033865433 -0.008023381 -0.006776736 -0.0126248775 -0.02010706
0.012946807 -0.047455683 -0.016709626 -0.047592614 -0.002768514 -0.055670165 0.04221707 -0.010419385
-0.015626622 -0.031048836 -0.07972888 -0.052520733 -0.05571762 0.019939914 0.016096288 -0.010971302
-0.03808557 -0.09429032 -0.0029540772 0.043832786 -0.022788748 -0.044436906 -0.038206164 0.022164516
-0.069629624 0.07461477 -0.04965511 0.039317865 -0.00457177 0.017215054 -0.0047013466 0.040347088
0.025843011 0.05712728 0.021371044 0.026761971 -0.027512094 0.02043265 -0.020534482 -0.026115896
1.0474827 1.0308831 1.0543612 0.985386 0.9912093 1.0642997 0.93936193 1.0849998
0.95310134 1.024794 0.949702 1.0013663 0.96501833 0.99832803 0.96205956 1.0066851
1.010254 0.96379703 0.97182137 0.95539385 0.9740382 0.94635695 0.991918 1.0043939
0.98030573 1.0456411 0.95391554 0.9925444 1.0292301 1.1157762 1.0306805 0.9034511
0.9329823 1.0107585 1.0317249 0.9907222 0.9419377 1.0394207 0.9497972 1.0242517
0.9979087 0.9964435 0.98185766 1.0969831 0.95972633 0.97442156 0.9857161 1.0456648
1.0170282 0.9695765 0.9684182 0.98144305 0.9425405 1.020869 1.0203038 1.0576754
0.98539233 0.92427677 0.9659311 0.9310925 0.9811862 1.0179979 0.9519631 0.984081
1.011474 0.940803 1.0052651 0.99915403 0.98312825 0.997291 0.98815 0.95501894
0.9857961 0.95991594 1.001217 0.9998203 1.026596 0.90667444 0.99999326 0.9681959
0.9509108 0.983379 1.0084904 0.97139746 0.9811332 0.952997 0.96241 1.0140059
0.9749076 0.91739714 0.97169745 0.9394708 0.97148424 0.951362 1.0209231 0.99134576
0.9749895 0.9389041 0.94022226 0.9207336 0.93419147 0.9891328 1.0278846 1.0373266
0.9181154 0.94259214 0.9884566 1.1149557 0.95977324 0.95352644 0.9513352 1.0427146
0.9327669 0.96325433 0.99728775 1.0501505 1.0497464 0.99146163 1.0036217 1.0510195
0.9896103 0.95846987 1.0171702 1.0067484 0.9631269 0.9699086 0.9835061 0.95069134
00000000: ec9f 043d f1e4 703d 8a4e e9bd 1a04 98bc
00000010: 4ca5 563d 1676 ee3c 2c30 efbc 3b0e a33d
00000020: 8649 9bbc 224e 60bd 45d0 1dbd fce4 bbbc
00000030: e150 5abc 4ca7 cd3c 7a12 b63c bc68 a93d
00000040: 9787 5bbd ee5e d9bd 69cc 7dbd 84cb 42bd
00000050: 05f8 72ba 8d1f f2bc 617b 293d 0a38 1dbd
00000060: b067 74bc ff6a b93d 7485 d2bc 1c0a aebb
00000070: a1f7 983d 8754 b83c fe35 fa3c 197b c3bd
00000080: 6271 c9bc 28ce bf3c 774e 59bc 4082 baba
00000090: 4006 c0bc 51da c0bc 871f beba 5a46 803d
000000a0: 7ca6 1e3c 9634 173d 2b3b 1cbd 2198 d33d
000000b0: 7090 36bd 98c0 fbbc d8bb 713d 8e5e f13c
000000c0: 2069 13bc 2290 a6bc 2053 bcbc 0943 9b3c
000000d0: e878 49bd d025 d13b 2e58 48bd a2b7 a53d
000000e0: 0dc8 83bd 1604 b1bd cdf1 82bd 835e b0bd
000000f0: ebba 03bd 8445 843c 7afc edbc f596 fc3c
00000100: c5b0 2b3c d3ba 7fbd 4fee c93c 76aa 79bc
00000110: 45a0 f83c ebb5 cbbc 53f9 9bbc 5bae 843c
00000120: 08ce 523d 2bc3 44bd c310 7bbb 5a5a 9b3c
00000130: 4d05 843c 4e3c 8abd b4cb 043d a949 2abd
00000140: d6b4 babc c38b 5abc 73c1 803d 7bb6 0abd
00000150: 8074 03bc 620f debb 93d8 4ebc 90b7 a4bc
00000160: d81e 543c e460 42bd a0e2 88bc 79f0 42bd
00000170: f56f 35bb 6606 64bd ceeb 2c3d 11b6 2abc
00000180: 6703 80bc 215a febc e548 a3bd fb1f 57bd
00000190: 2938 64bd 0859 a33c 5ddc 833c fac0 33bc
000001a0: 9dff 1bbd 491b c1bd 3199 41bb 028a 333d
000001b0: 78af babc 7903 36bd 117e 1cbd 5c92 b53c
000001c0: fa99 8ebd a1cf 983d 2863 4bbd c50b 213d
000001d0: c9ce 95bb 9606 8d3c c10d 9abb fd42 253d
000001e0: b9b4 d33c 4bfe 693d 5412 af3c ec3b db3c
000001f0: 0b61 e1bc 5f62 a73c ee37 a8bc 01f1 d5bc
00000200: ea13 863f faf3 833f 4ff5 863f 4242 7c3f
00000210: e5bf 7d3f f93a 883f 067a 703f 46e1 8a3f
00000220: 73fe 733f 732c 833f ac1f 733f c52c 803f
00000230: 710b 773f 6d92 7f3f 8949 763f 0fdb 803f
00000240: 0150 813f 67bb 763f 49c9 783f b194 743f
00000250: 915a 793f 7344 723f 57ee 7d3f fb8f 803f
00000260: 51f5 7a3f 91d7 853f cf33 743f 6417 7e3f
00000270: d0bd 833f c1d1 8e3f 57ed 833f 9248 673f
00000280: eed7 6e3f 8960 813f 900f 843f f89f 7d3f
00000290: d422 713f bd0b 853f e925 733f ae1a 833f
000002a0: f276 7f3f ec16 7f3f 065b 7b3f f169 8c3f
000002b0: a0b0 753f b173 793f e457 7c3f 58d8 853f
000002c0: fb2d 823f 2a36 783f 41ea 773f da3f 7b3f
000002d0: 564a 713f d6ab 823f 5199 823f e861 873f
000002e0: ac42 7c3f 679d 6c3f 4347 773f 145c 6e3f
000002f0: 052f 7b3f c14d 823f dbb3 733f bbec 7b3f
00000300: fb77 813f 77d8 703f 87ac 803f 8fc8 7f3f
00000310: 4bae 7b3f 774e 7f3f 66f7 7c3f 1f7c 743f
00000320: 225d 7c3f 0dbd 753f e127 803f 39f4 7f3f
00000330: 7f67 833f d11b 683f 8fff 7f3f b0db 773f
00000340: e46e 733f babe 7b3f 3716 813f 81ad 783f
00000350: 8c2b 7b3f 9df7 733f 8060 763f f2ca 813f
00000360: 8b93 793f 8ada 6a3f 2ac1 783f 2981 703f
00000370: 31b3 783f 768c 733f 9cad 823f d6c8 7d3f
00000380: e998 793f 055c 703f 68b2 703f 32b5 6b3f
00000390: 2c27 6f3f cf37 7d3f b991 833f 1ec7 843f
000003a0: 9c09 6b3f b84d 713f 7e0b 7d3f deb6 8e3f
000003b0: b3b3 753f 4f1a 743f b48a 733f ac77 853f
000003c0: d0c9 6e3f d697 763f 404e 7f3f 556b 863f
000003d0: 175e 863f 6ed0 7d3f ad76 803f cf87 863f
000003e0: 1a57 7d3f 485e 753f a232 823f 22dd 803f
000003f0: 7c8f 763f ee4b 783f 0ec7 7b3f 8260 733f

tfl.pseudo_qconst1 i1 [512, 134]
-1 10 -12 8 16 -25 6 11
-27 3 3 -11 -7 3 6 11
-8 31 -18 5 34 -1 -3 33
-18 10 42 4 4 41 5 4
55 10 -5 53 -3 7 48 -16
1 34 0 1 65 -8 14 64
2 -13 67 1 14 54 -5 12
74 -19 0 97 -12 2 73 -7
-2 -17 -1 -7 127 6 -27 91
-7 -10 65 5 -12 51 -18 -5
-6 -17 -15 -5 -8 -1 25 0
-8 7 -17 -6 -19 -4 -25 6
-2 -11 14 -22 0 -6 -6 -12
-38 8 0 -35 6 1 -18 -22
-6 18 -15 2 -56 -14 2 -13
-12 -18 -3 -19 -25 -24 -3 5
9 17 6 11 -49 9 6 -1
-1 6 19 -89 19 6 -123 -4
12 -114 6 2 -127 12 13 -72
14 20 -83 10 16 -95 18 2
-82 4 25 -48 -2 7 -67 2
28 -69 15 6 -80 21 3 -46
21 16 -40 20 25 -44 1 13
-55 -1 9 -23 20 11 -30 4
-1 -24 24 8 -41 -25 -15 4
-30 -32 59 -27 -26 31 -3 -8
38 -23 -31 47 -7 -32 35 0
-21 35 -29 -4 17 -1 -25 27
-6 -32 21 -4 -4 17 -13 -22
22 -17 -30 20 -19 -28 31 -2
-22 26 -19 -32 21 -27 -16 45
-11 -26 16 -3 -24 17 -8 -31
00000000: ff0a f408 10e7 060b e503 03f5 f903 060b
00000010: f81f ee05 22ff fd21 ee0a 2a04 0429 0504
00000020: 370a fb35 fd07 30f0 0122 0001 41f8 0e40
00000030: 02f3 4301 0e36 fb0c 4aed 0061 f402 49f9
00000040: feef fff9 7f06 e55b f9f6 4105 f433 eefb
00000050: faef f1fb f8ff 1900 f807 effa edfc e706
00000060: fef5 0eea 00fa faf4 da08 00dd 0601 eeea
00000070: fa12 f102 c8f2 02f3 f4ee fded e7e8 fd05
00000080: 0911 060b cf09 06ff ff06 13a7 1306 85fc
00000090: 0c8e 0602 810c 0db8 0e14 ad0a 10a1 1202
000000a0: ae04 19d0 fe07 bd02 1cbb 0f06 b015 03d2
000000b0: 1510 d814 19d4 010d c9ff 09e9 140b e204
000000c0: ffe8 1808 d7e7 f104 e2e0 3be5 e61f fdf8
000000d0: 26e9 e12f f9e0 2300 eb23 e3fc 11ff e71b
000000e0: fae0 15fc fc11 f3ea 16ef e214 ede4 1ffe
000000f0: ea1a ede0 15e5 f02d f5e6 10fd e811 f8e1

tfl.pseudo_qconst2 i1 [512, 128]
-23 -18 27 -27 -25 -17 -32 -13
42 -6 4 48 -45 -56 -19 70
-42 82 -31 -12 -3 19 25 12
45 -127 -73 36 23 4 -78 17
-23 -27 -27 11 6 16 -18 -16
4 2 -49 9 -19 -44 47 38
-8 -14 -27 11 28 -9 -31 -31
-28 -7 -34 24 -42 -54 1 -16
-43 -28 44 13 14 -13 38 -35
31 -20 4 -6 -11 -65 21 -43
-50 -10 -30 33 -29 -12 -7 -43
0 -32 16 84 -8 17 15 1
27 -6 -8 0 -40 10 -34 -31
60 -58 -53 -39 -14 65 -16 -1
-40 19 31 10 -7 29 1 37
29 6 -22 -110 48 -21 45 -64
53 80 0 -49 -18 126 79 -7
5 42 -62 -93 56 -94 57 31
-22 -21 -57 -46 -23 56 52 -15
48 -45 -8 -22 -38 47 -27 25
22 -91 -20 87 -81 -69 7 -30
44 57 -33 -45 -4 -86 -59 -113
26 -24 -15 41 25 -81 17 -2
-14 -28 -30 -35 -15 -29 -92 46
22 -4 52 85 -14 -19 41 97
32 19 -33 40 53 -14 -25 -5
-107 -35 23 3 -56 -15 -64 -61
72 -49 53 20 -24 -26 -46 73
-87 -78 -13 -23 -54 -10 -30 -3
4 -92 -67 127 84 -42 -6 -101
13 -33 70 -72 -113 124 -14 17
14 100 59 -45 17 61 68 5
00000000: e9ee 1be5 e7ef e0f3 2afa 0430 d3c8 ed46
00000010: d652 e1f4 fd13 190c 2d81 b724 1704 b211
00000020: e9e5 e50b 0610 eef0 0402 cf09 edd4 2f26
00000030: f8f2 e50b 1cf7 e1e1 e4f9 de18 d6ca 01f0
00000040: d5e4 2c0d 0ef3 26dd 1fec 04fa f5bf 15d5
00000050: cef6 e221 e3f4 f9d5 00e0 1054 f811 0f01
00000060: 1bfa f800 d80a dee1 3cc6 cbd9 f241 f0ff
00000070: d813 1f0a f91d 0125 1d06 ea92 30eb 2dc0
00000080: 3550 00cf ee7e 4ff9 052a c2a3 38a2 391f
00000090: eaeb c7d2 e938 34f1 30d3 f8ea da2f e519
000000a0: 16a5 ec57 afbb 07e2 2c39 dfd3 fcaa c58f
000000b0: 1ae8 f129 19af 11fe f2e4 e2dd f1e3 a42e
000000c0: 16fc 3455 f2ed 2961 2013 df28 35f2 e7fb
000000d0: 95dd 1703 c8f1 c0c3 48cf 3514 e8e6 d249
000000e0: a9b2 f3e9 caf6 e2fd 04a4 bd7f 54d6 fa9b
000000f0: 0ddf 46b8 8f7c f211 0e64 3bd3 113d 4405

arith.constant23 f4 [256]
-0.0624936 0.06706361 0.008098629 -0.050544273 -0.005978422 -0.03008019 -0.024621034 -0.06549945
-0.054331325 -0.020263623 0.019146234 -0.09486616 0.010884172 0.0048843855 -0.12262712 -0.019952811
-0.054869175 0.0198393 -0.19119301 -0.028093047 0.0088888975 -0.00071809825 -0.08694898 -0.07214085
-0.031114161 -0.082672715 -0.12065418 -0.03187052 -0.055441063 0.001999191 -0.0047165602 0.0016118737
-0.03493219 0.01854587 0.012553896 -0.08542352 -0.030456522 -0.036075864 -0.022057422 -0.05899459
-0.014875996 -0.04245107 -0.02215082 0.050870307 -0.0013472328 -0.011000662 -0.041727494 -0.07897979
-0.048094835 0.06948148 0.0676609 -0.053561147 -0.007397702 0.0008417621 -0.11514374 -0.04544455
-0.03760323 -0.037651386 0.00035473306 -0.08575042 0.036502738 0.014127315 -0.10943647 -0.01429197
0.9342504 1.0143162 0.98444146 1.0185304 0.9776145 0.9654076 0.920884 0.96835965
0.94879264 1.0538086 1.0183762 1.0348338 0.91236675 0.951091 0.8997511 0.9798835
1.0263374 1.0045825 0.83203727 0.9715791 0.9538446 0.99498075 0.8998939 1.0178713
0.9405728 0.86828893 0.8667967 0.8976426 0.96437407 0.9349969 1.0509001 0.9701857
0.94453865 0.9698736 0.95236856 0.93120474 0.9733071 1.0047826 0.95683944 0.885735
0.99160385 0.9388212 0.9778677 0.96114933 0.9925505 1.0401986 1.0271741 0.9145088
1.0124384 0.936089 0.96403986 0.9760468 0.9544102 0.94573385 0.9152643 1.0141652
1.0016519 0.8828804 0.97991115 0.9736552 0.9926078 0.97089726 0.9126643 0.9101946
-0.05883486 -0.03044881 0.010722409 -0.006354695 0.04504411 -0.03270042 0.0437688 0.017770698
0.030341113 0.048967842 -0.0008567962 0.019929478 0.04475359 0.02101887 0.039736852 0.018762415
-0.0075831614 -0.026966495 8.1462036e-05 -0.057634495 0.014776351 -0.014706873 -0.015805468 0.06134672
0.020718241 -0.024113918 0.0070106247 0.0070171487 0.0010066455 -0.019317502 -0.014633358 0.004855058
-0.007140378 -0.04577267 0.012209651 -0.014741941 -0.007721431 -0.01503409 -0.009056875 0.008382282
0.019810244 0.031500302 -0.013913415 -0.012748206 0.009719143 -0.024166951 -0.04593383 -0.029046321
-0.00028100456 0.043870967 0.025230417 -0.036739573 -0.009541252 -0.005896558 0.041631818 -0.008282773
0.03816444 0.057687733 0.020740278 0.016447932 0.010048563 0.036413554 0.032621782 0.023450123
-0.085396186 -0.018640654 0.0068668295 -0.013645517 0.0070630247 -0.067580916 -0.03706395 -0.037042875
-0.07598837 -0.017355751 0.04602322 -0.01822233 0.041524958 -0.002611199 -0.07010974 -0.014507301
0.04819501 0.0020920231 -0.16873814 -0.058656015 -0.029976102 0.029670361 -0.06244706 0.007959445
-0.04671525 -0.106102064 -0.14561754 -0.00842069 -0.018468508 0.021182131 0.006216063 -0.072506934
-0.0402121 -0.059585523 0.010129443 -0.094271086 -0.046065975 0.008312495 -0.043711986 -0.039688956
-0.071769066 -0.024925167 -0.08163584 0.047515456 -0.010647568 -0.026885131 -0.06977523 -0.12147614
0.009340882 0.021449823 0.04735405 -0.04782002 -0.033026256 -0.010098524 -0.07367287 -0.024239557
-0.03540723 -0.04733326 0.003223215 -0.09996258 0.05560138 0.01472428 -0.14029528 0.007836596
00000000: 4af9 7fbd a558 893d 1db0 043c 8307 4fbd
00000010: a3e6 c3bb bb6a f6bc 0db2 c9bc 9324 86bd
00000020: 868a 5ebd e6ff a5bc 90d8 9c3c 3049 c2bd
00000030: 8753 323c 320d a03b ed23 fbbd 1474 a3bc
00000040: 80be 60bd 0786 a23c 1ac8 43be 6423 e6bc
00000050: bda2 113c c23e 3cba 4f12 b2bd 95be 93bd
00000060: 20e3 febc 5050 a9bd 8a19 f7bd aa8a 02bd
00000070: 2b16 63bd dc04 033b 608d 9abb 8245 d33a
00000080: 0e15 0fbd 82ed 973c dbae 4d3c 87f2 aebd
00000090: f57f f9bc 49c4 13bd c4b1 b4bc 50a4 71bd
000000a0: 73ba 73bc 2ce1 2dbd a375 b5bc 625d 503d
000000b0: a295 b0ba 1f3c 34bc 73ea 2abd 28c0 a1bd
000000c0: 17ff 44bd 4e4c 8e3d cc91 8a3d ef62 5bbd
000000d0: 6c68 f2bb b3a9 5c3a 7bd0 ebbd 1124 3abd
000000e0: d805 1abd 5738 1abd 77fb b939 eb9d afbd
000000f0: e583 153d 4176 673c 3a20 e0bd de28 6abc
00000100: 092b 6f3f 1dd5 813f 5b04 7c3f 345f 823f
00000110: f244 7a3f f424 773f 0ebf 6b3f 6be6 773f
00000120: 13e4 723f 33e3 863f 275a 823f 6f75 843f
00000130: de90 693f b37a 733f 1756 663f a5d9 7a3f
00000140: 065f 833f 2996 803f 6500 553f 68b9 783f
00000150: 292f 743f 0fb7 7e3f 725f 663f 9b49 823f
00000160: 61c9 703f 2f48 5e3f 63e6 5d3f e8cb 653f
00000170: 38e1 763f f55b 6f3f e583 863f 175e 783f
00000180: 49cd 713f a349 783f 6dce 733f 6f63 6e3f
00000190: a72a 793f b79c 803f 6ef3 743f 87bf 623f
000001a0: c0d9 7d3f 9656 703f 8a55 7a3f e20d 763f
000001b0: ca17 7e3f 3a25 853f 717a 833f 401d 6a3f
000001c0: 9597 813f 87a3 6f3f 51cb 763f 34de 793f
000001d0: 3a54 743f 9d1b 723f c34e 6a3f 2ad0 813f
000001e0: 2136 803f 7304 623f 75db 7a3f 7841 793f
000001f0: 8b1b 7e3f b98c 783f 5ea4 693f 8302 693f
00000200: d2fc 70bd c86f f9bc 0bad 2f3c 0c3b d0bb
00000210: 2c80 383d e0f0 05bd ea46 333d db93 913c
00000220: ed8d f83c 8192 483d 9f9a 60ba 2543 a33c
00000230: 8a4f 373d c42f ac3c 1cc3 223d a3b3 993c
00000240: 2b7c f8bb d7e8 dcbc 99d6 aa38 2612 6cbd
00000250: 8218 723c 19f5 70bc 787a 81bc b346 7b3d
00000260: 4db9 a93c 8d8a c5bc 62b9 e53b 1cf0 e53b
00000270: 6bf1 833a bd3f 9ebc c1c0 6fbc 2e17 9f3b
00000280: d5f9 e9bb 207c 3bbd fd0a 483c 2f88 71bc
00000290: 0f04 fdbb 8b51 76bc 4963 14bc d755 093c
000002a0: 1849 a23c 7606 013d 18f5 63bc dadd 50bc
000002b0: 0a3d 1f3c c5f9 c5bc 1d25 3cbd 8df2 edbc
000002c0: cb53 93b9 0bb2 333d 05b0 ce3c 3c7c 16bd
000002d0: e952 1cbc ea37 c1bb 2086 2a3d 78b4 07bc
000002e0: 5152 1c3d f949 6c3d 84e7 a93c d0bd 863c
000002f0: baa2 243c 6126 153d 6b9e 053d 791a c03c
00000300: 32e4 aebd 49b4 98bc 2403 e13b 7291 5fbc
00000310: f270 e73b dd67 8abd 5ed0 17bd 45ba 17bd
00000320: ca9f 9bbd a62d 8ebc d882 3c3d ff46 95bc
00000330: 1316 2a3d a620 2bbb b295 8fbd 08b0 6dbc
00000340: 2168 453d 531a 093b b1c9 2cbe 4a41 70bd
00000350: 7190 f5bc 420f f33c 7dc8 7fbd 5568 023c
00000360: 7d58 3fbd 0a4c d9bd c41c 15be eff6 09bc
00000370: 454b 97bc 2686 ad3c 1eb0 cb3b 847e 94bd
00000380: 71b5 24bd f30f 74bd f7f5 253c 3311 c1bd
00000390: adaf 3cbd 2231 083c 570b 33bd e390 22bd
000003a0: a9fb 92bd dd2f ccbc b130 a7bd 919f 423d
000003b0: 2373 2ebc 353e dcbc 51e6 8ebd 7cc8 f8bd
000003c0: 800a 193c 8ab7 af3c 52f6 413d edde 43bd
000003d0: 8a46 07bd 4874 25bc cde1 96bd 0992 c6bc
000003e0: 2c07 11bd 85e0 41bd 933c 533b 2eb9 ccbd
000003f0: 46be 633d 1b3e 713c 91a9 0fbe 1165 003c

tfl.pseudo_qconst3 i1 [256, 128]
-28 -122 -17 -50 10 -55 -25 -73
49 -57 -18 35 -60 55 38 30
-32 -72 -8 -3 75 23 5 83
40 15 -51 3 78 36 -88 14
19 37 -52 -6 -27 66 44 -51
12 -6 17 -14 -70 -70 16 -3
66 -3 -28 1 0 34 -127 -38
-14 -11 -75 56 -71 -51 -36 16
-57 -27 -52 -45 79 -6 42 -59
-6 -2 30 45 -15 -20 43 -98
-68 -51 45 3 25 -6 -4 -41
16 26 62 26 -45 40 45 -96
-16 55 -51 69 7 42 111 -74
44 33 78 -20 -17 -13 -68 28
-34 45 108 28 22 77 24 117
-31 -43 -54 -30 47 -75 -44 -73
8 65 -63 13 49 8 12 -81
27 -14 27 16 -27 -23 -83 61
-5 -41 34 -6 -77 5 36 -74
-38 -26 5 -44 -33 45 -34 -24
-127 58 -8 -17 -2 26 -36 32
-23 -34 -11 62 61 79 -47 97
0 48 1 -50 -28 45 -35 72
98 5 24 10 -34 -52 102 -24
46 26 7 -6 31 -40 -44 -27
-77 -9 -51 12 -24 -38 40 46
-26 -3 27 -6 11 -69 -26 -21
46 30 60 -16 83 -9 -46 -98
-86 60 34 -31 45 41 77 -37
-18 7 40 75 8 2 68 -46
-23 -84 -82 15 31 39 -25 -4
-33 1 16 8 38 12 -84 41
00000000: e486 efce 0ac9 e7b7 31c7 ee23 c437 261e
00000010: e0b8 f8fd 4b17 0553 280f cd03 4e24 a80e
00000020: 1325 ccfa e542 2ccd 0cfa 11f2 baba 10fd
00000030: 42fd e401 0022 81da f2f5 b538 b9cd dc10
00000040: c7e5 ccd3 4ffa 2ac5 fafe 1e2d f1ec 2b9e
00000050: bccd 2d03 19fa fcd7 101a 3e1a d328 2da0
00000060: f037 cd45 072a 6fb6 2c21 4eec eff3 bc1c
00000070: de2d 6c1c 164d 1875 e1d5 cae2 2fb5 d4b7
00000080: 0841 c10d 3108 0caf 1bf2 1b10 e5e9 ad3d
00000090: fbd7 22fa b305 24b6 dae6 05d4 df2d dee8
000000a0: 813a f8ef fe1a dc20 e9de f53e 3d4f d161
000000b0: 0030 01ce e42d dd48 6205 180a decc 66e8
000000c0: 2e1a 07fa 1fd8 d4e5 b3f7 cd0c e8da 282e
000000d0: e6fd 1bfa 0bbb e6eb 2e1e 3cf0 53f7 d29e
000000e0: aa3c 22e1 2d29 4ddb ee07 284b 0802 44d2
000000f0: e9ac ae0f 1f27 e7fc df01 1008 260c ac29

tfl.pseudo_qconst4 i1 [256, 64]
12 -50 14 15 79 -38 2 -43
49 -25 -32 -85 68 54 30 31
8 39 -44 34 -15 -33 -2 40
25 36 19 -20 -127 -22 8 -23
7 37 43 -66 -30 -20 65 37
67 75 -28 -3 75 -23 40 -6
67 19 51 37 1 4 32 34
-68 20 20 20 44 54 -21 24
-67 -28 127 -49 -9 -57 29 15
12 13 -55 -28 44 3 17 -17
66 67 -65 16 23 -88 -26 -114
-102 -8 35 25 36 45 -21 33
94 62 19 15 9 -113 35 -16
-38 9 91 31 114 -7 -101 38
51 -9 32 3 -54 -40 18 27
-40 -37 -22 45 34 97 12 -32
22 32 -23 24 101 -27 87 127
83 -5 -71 70 -59 -36 92 -23
67 -59 -62 -68 8 -109 -62 71
12 11 -59 22 20 -5 52 -113
59 -28 59 21 -48 40 -52 87
-22 32 -8 15 -113 68 -10 11
54 31 -48 -6 -17 55 64 -16
50 19 -115 -105 87 -54 78 -58
36 2 -7 -34 2 89 -52 7
-28 26 -80 3 5 -2 28 58
4 -15 15 -3 11 -25 -40 56
126 33 15 15 113 -45 -22 -4
-35 -43 -3 11 -37 23 -120 -12
2 112 -12 -31 -53 28 27 20
-48 -57 29 68 26 114 34 75
23 127 28 -16 -60 -61 36 7
00000000: 0cce 0e0f 4fda 02d5 31e7 e0ab 4436 1e1f
00000010: 0827 d422 f1df fe28 1924 13ec 81ea 08e9
00000020: 0725 2bbe e2ec 4125 434b e4fd 4be9 28fa
00000030: 4313 3325 0104 2022 bc14 1414 2c36 eb18
00000040: bde4 7fcf f7c7 1d0f 0c0d c9e4 2c03 11ef
00000050: 4243 bf10 17a8 e68e 9af8 2319 242d eb21
00000060: 5e3e 130f 098f 23f0 da09 5b1f 72f9 9b26
00000070: 33f7 2003 cad8 121b d8db ea2d 2261 0ce0
00000080: 1620 e918 65e5 577f 53fb b946 c5dc 5ce9
00000090: 43c5 c2bc 0893 c247 0c0b c516 14fb 348f
000000a0: 3be4 3b15 d028 cc57 ea20 f80f 8f44 f60b
000000b0: 361f d0fa ef37 40f0 3213 8d97 57ca 4ec6
000000c0: 2402 f9de 0259 cc07 e41a b003 05fe 1c3a
000000d0: 04f1 0ffd 0be7 d838 7e21 0f0f 71d3 eafc
000000e0: ddd5 fd0b db17 88f4 0270 f4e1 cb1c 1b14
000000f0: d0c7 1d44 1a72 224b 177f 1cf0 c4c3 2407
